…
data_config='/home/u8915687/lab/big-superb/LLaMA-Adapter/imagebind_LLM/exps/config.yaml',
num_workers=8,
pin_mem=True,
output_dir='exp/whisper1',
log_dir='./output',
device='cuda',
seed=0,
start_epoch=0,
world_size=1,
local_rank=-1,
dist_on_itp=False,
dist_url='env://',
rank=0,
gpu=0,
distributed=True,
dist_backend='nccl')
[02:22:12.061286] model args: ModelArgs(dim=4096, n_layers=32, n_heads=32, vocab_size=-1, multiple_of=256, norm_eps=1e-06, max_batch_size=1, max_seq_len=512, w_bias=True, w_lora=True, lora_rank=16)
[02:22:33.068436] Model = WhisperLLaMA_adapter(
  (whisper_encoder): WhisperEncoder(
    (conv1): Conv1d(80, 1024, kernel_size=(3,), stride=(1,), padding=(1,))
    (conv2): Conv1d(1024, 1024, kernel_size=(3,), stride=(2,), padding=(1,))
    (embed_positions): Embedding(1500, 1024)
    (layers): ModuleList(
      (0): WhisperEncoderLayer(
        (self_attn): WhisperAttention(
          (k_proj): Linear(in_features=1024, out_features=1024, bias=False)
          (v_proj): Linear(in_features=1024, out_features=1024, bias=True)
          (q_proj): Linear(in_features=1024, out_features=1024, bias=True)
          (out_proj): Linear(in_features=1024, out_features=1024, bias=True)
        )
        (self_attn_layer_norm): LayerNorm((1024,), eps=1e-05, elementwise_affine=True)
        (activation_fn): GELUActivation()
        (fc1): Linear(in_features=1024, out_features=4096, bias=True)
        (fc2): Linear(in_features=4096, out_features=1024, bias=True)
        (final_layer_norm): LayerNorm((1024,), eps=1e-05, elementwise_affine=True)
      )
      (1): WhisperEncoderLayer(
        (self_attn): WhisperAttention(
          (k_proj): Linear(in_features=1024, out_features=1024, bias=False)
          (v_proj): Linear(in_features=1024, out_features=1024, bias=True)
          (q_proj): Linear(in_features=1024, out_features=1024, bias=True)
          (out_proj): Linear(in_features=1024, out_features=1024, bias=True)
        )
        (self_attn_layer_norm): LayerNorm((1024,), eps=1e-05, elementwise_affine=True)
        (activation_fn): GELUActivation()
        (fc1): Linear(in_features=1024, out_features=4096, bias=True)
        (fc2): Linear(in_features=4096, out_features=1024, bias=True)
        (final_layer_norm): LayerNorm((1024,), eps=1e-05, elementwise_affine=True)
      )
      (2): WhisperEncoderLayer(
        (self_attn): WhisperAttention(
          (k_proj): Linear(in_features=1024, out_features=1024, bias=False)
          (v_proj): Linear(in_features=1024, out_features=1024, bias=True)
          (q_proj): Linear(in_features=1024, out_features=1024, bias=True)
          (out_proj): Linear(in_features=1024, out_features=1024, bias=True)
        )
        (self_attn_layer_norm): LayerNorm((1024,), eps=1e-05, elementwise_affine=True)
        (activation_fn): GELUActivation()
        (fc1): Linear(in_features=1024, out_features=4096, bias=True)
        (fc2): Linear(in_features=4096, out_features=1024, bias=True)
        (final_layer_norm): LayerNorm((1024,), eps=1e-05, elementwise_affine=True)
      )
      (3): WhisperEncoderLayer(
        (self_attn): WhisperAttention(
          (k_proj): Linear(in_features=1024, out_features=1024, bias=False)
          (v_proj): Linear(in_features=1024, out_features=1024, bias=True)
          (q_proj): Linear(in_features=1024, out_features=1024, bias=True)
          (out_proj): Linear(in_features=1024, out_features=1024, bias=True)
        )
        (self_attn_layer_norm): LayerNorm((1024,), eps=1e-05, elementwise_affine=True)
        (activation_fn): GELUActivation()
        (fc1): Linear(in_features=1024, out_features=4096, bias=True)
        (fc2): Linear(in_features=4096, out_features=1024, bias=True)
        (final_layer_norm): LayerNorm((1024,), eps=1e-05, elementwise_affine=True)
      )
      (4): WhisperEncoderLayer(
        (self_attn): WhisperAttention(
          (k_proj): Linear(in_features=1024, out_features=1024, bias=False)
          (v_proj): Linear(in_features=1024, out_features=1024, bias=True)
          (q_proj): Linear(in_features=1024, out_features=1024, bias=True)
          (out_proj): Linear(in_features=1024, out_features=1024, bias=True)
        )
        (self_attn_layer_norm): LayerNorm((1024,), eps=1e-05, elementwise_affine=True)
        (activation_fn): GELUActivation()
        (fc1): Linear(in_features=1024, out_features=4096, bias=True)
        (fc2): Linear(in_features=4096, out_features=1024, bias=True)
        (final_layer_norm): LayerNorm((1024,), eps=1e-05, elementwise_affine=True)
      )
      (5): WhisperEncoderLayer(
        (self_attn): WhisperAttention(
          (k_proj): Linear(in_features=1024, out_features=1024, bias=False)
          (v_proj): Linear(in_features=1024, out_features=1024, bias=True)
          (q_proj): Linear(in_features=1024, out_features=1024, bias=True)
          (out_proj): Linear(in_features=1024, out_features=1024, bias=True)
        )
        (self_attn_layer_norm): LayerNorm((1024,), eps=1e-05, elementwise_affine=True)
        (activation_fn): GELUActivation()
        (fc1): Linear(in_features=1024, out_features=4096, bias=True)
        (fc2): Linear(in_features=4096, out_features=1024, bias=True)
        (final_layer_norm): LayerNorm((1024,), eps=1e-05, elementwise_affine=True)
      )
      (6): WhisperEncoderLayer(
        (self_attn): WhisperAttention(
          (k_proj): Linear(in_features=1024, out_features=1024, bias=False)
          (v_proj): Linear(in_features=1024, out_features=1024, bias=True)
          (q_proj): Linear(in_features=1024, out_features=1024, bias=True)
          (out_proj): Linear(in_features=1024, out_features=1024, bias=True)
        )
        (self_attn_layer_norm): LayerNorm((1024,), eps=1e-05, elementwise_affine=True)
        (activation_fn): GELUActivation()
        (fc1): Linear(in_features=1024, out_features=4096, bias=True)
        (fc2): Linear(in_features=4096, out_features=1024, bias=True)
        (final_layer_norm): LayerNorm((1024,), eps=1e-05, elementwise_affine=True)
      )
      (7): WhisperEncoderLayer(
        (self_attn): WhisperAttention(
          (k_proj): Linear(in_features=1024, out_features=1024, bias=False)
          (v_proj): Linear(in_features=1024, out_features=1024, bias=True)
          (q_proj): Linear(in_features=1024, out_features=1024, bias=True)
          (out_proj): Linear(in_features=1024, out_features=1024, bias=True)
        )
        (self_attn_layer_norm): LayerNorm((1024,), eps=1e-05, elementwise_affine=True)
        (activation_fn): GELUActivation()
        (fc1): Linear(in_features=1024, out_features=4096, bias=True)
        (fc2): Linear(in_features=4096, out_features=1024, bias=True)
        (final_layer_norm): LayerNorm((1024,), eps=1e-05, elementwise_affine=True)
      )
      (8): WhisperEncoderLayer(
        (self_attn): WhisperAttention(
          (k_proj): Linear(in_features=1024, out_features=1024, bias=False)
          (v_proj): Linear(in_features=1024, out_features=1024, bias=True)
          (q_proj): Linear(in_features=1024, out_features=1024, bias=True)
          (out_proj): Linear(in_features=1024, out_features=1024, bias=True)
        )
        (self_attn_layer_norm): LayerNorm((1024,), eps=1e-05, elementwise_affine=True)
        (activation_fn): GELUActivation()
        (fc1): Linear(in_features=1024, out_features=4096, bias=True)
        (fc2): Linear(in_features=4096, out_features=1024, bias=True)
        (final_layer_norm): LayerNorm((1024,), eps=1e-05, elementwise_affine=True)
      )
      (9): WhisperEncoderLayer(
        (self_attn): WhisperAttention(
          (k_proj): Linear(in_features=1024, out_features=1024, bias=False)
          (v_proj): Linear(in_features=1024, out_features=1024, bias=True)
          (q_proj): Linear(in_features=1024, out_features=1024, bias=True)
          (out_proj): Linear(in_features=1024, out_features=1024, bias=True)
        )
        (self_attn_layer_norm): LayerNorm((1024,), eps=1e-05, elementwise_affine=True)
        (activation_fn): GELUActivation()
        (fc1): Linear(in_features=1024, out_features=4096, bias=True)
        (fc2): Linear(in_features=4096, out_features=1024, bias=True)
        (final_layer_norm): LayerNorm((1024,), eps=1e-05, elementwise_affine=True)
      )
      (10): WhisperEncoderLayer(
        (self_attn): WhisperAttention(
          (k_proj): Linear(in_features=1024, out_features=1024, bias=False)
          (v_proj): Linear(in_features=1024, out_features=1024, bias=True)
          (q_proj): Linear(in_features=1024, out_features=1024, bias=True)
          (out_proj): Linear(in_features=1024, out_features=1024, bias=True)
        )
        (self_attn_layer_norm): LayerNorm((1024,), eps=1e-05, elementwise_affine=True)
        (activation_fn): GELUActivation()
        (fc1): Linear(in_features=1024, out_features=4096, bias=True)
        (fc2): Linear(in_features=4096, out_features=1024, bias=True)
        (final_layer_norm): LayerNorm((1024,), eps=1e-05, elementwise_affine=True)
      )
      (11): WhisperEncoderLayer(
        (self_attn): WhisperAttention(
          (k_proj): Linear(in_features=1024, out_features=1024, bias=False)
          (v_proj): Linear(in_features=1024, out_features=1024, bias=True)
          (q_proj): Linear(in_features=1024, out_features=1024, bias=True)
          (out_proj): Linear(in_features=1024, out_features=1024, bias=True)
        )
        (self_attn_layer_norm): LayerNorm((1024,), eps=1e-05, elementwise_affine=True)
        (activation_fn): GELUActivation()
        (fc1): Linear(in_features=1024, out_features=4096, bias=True)
        (fc2): Linear(in_features=4096, out_features=1024, bias=True)
        (final_layer_norm): LayerNorm((1024,), eps=1e-05, elementwise_affine=True)
      )
      (12): WhisperEncoderLayer(
        (self_attn): WhisperAttention(
          (k_proj): Linear(in_features=1024, out_features=1024, bias=False)
          (v_proj): Linear(in_features=1024, out_features=1024, bias=True)
          (q_proj): Linear(in_features=1024, out_features=1024, bias=True)
          (out_proj): Linear(in_features=1024, out_features=1024, bias=True)
        )
        (self_attn_layer_norm): LayerNorm((1024,), eps=1e-05, elementwise_affine=True)
        (activation_fn): GELUActivation()
        (fc1): Linear(in_features=1024, out_features=4096, bias=True)
        (fc2): Linear(in_features=4096, out_features=1024, bias=True)
        (final_layer_norm): LayerNorm((1024,), eps=1e-05, elementwise_affine=True)
      )
      (13): WhisperEncoderLayer(
        (self_attn): WhisperAttention(
          (k_proj): Linear(in_features=1024, out_features=1024, bias=False)
          (v_proj): Linear(in_features=1024, out_features=1024, bias=True)
          (q_proj): Linear(in_features=1024, out_features=1024, bias=True)
          (out_proj): Linear(in_features=1024, out_features=1024, bias=True)
        )
        (self_attn_layer_norm): LayerNorm((1024,), eps=1e-05, elementwise_affine=True)
        (activation_fn): GELUActivation()
        (fc1): Linear(in_features=1024, out_features=4096, bias=True)
        (fc2): Linear(in_features=4096, out_features=1024, bias=True)
        (final_layer_norm): LayerNorm((1024,), eps=1e-05, elementwise_affine=True)
      )
      (14): WhisperEncoderLayer(
        (self_attn): WhisperAttention(
          (k_proj): Linear(in_features=1024, out_features=1024, bias=False)
          (v_proj): Linear(in_features=1024, out_features=1024, bias=True)
          (q_proj): Linear(in_features=1024, out_features=1024, bias=True)
          (out_proj): Linear(in_features=1024, out_features=1024, bias=True)
        )
        (self_attn_layer_norm): LayerNorm((1024,), eps=1e-05, elementwise_affine=True)
        (activation_fn): GELUActivation()
        (fc1): Linear(in_features=1024, out_features=4096, bias=True)
        (fc2): Linear(in_features=4096, out_features=1024, bias=True)
        (final_layer_norm): LayerNorm((1024,), eps=1e-05, elementwise_affine=True)
      )
      (15): WhisperEncoderLayer(
        (self_attn): WhisperAttention(
          (k_proj): Linear(in_features=1024, out_features=1024, bias=False)
          (v_proj): Linear(in_features=1024, out_features=1024, bias=True)
          (q_proj): Linear(in_features=1024, out_features=1024, bias=True)
          (out_proj): Linear(in_features=1024, out_features=1024, bias=True)
        )
        (self_attn_layer_norm): LayerNorm((1024,), eps=1e-05, elementwise_affine=True)
        (activation_fn): GELUActivation()
        (fc1): Linear(in_features=1024, out_features=4096, bias=True)
        (fc2): Linear(in_features=4096, out_features=1024, bias=True)
        (final_layer_norm): LayerNorm((1024,), eps=1e-05, elementwise_affine=True)
      )
      (16): WhisperEncoderLayer(
        (self_attn): WhisperAttention(
          (k_proj): Linear(in_features=1024, out_features=1024, bias=False)
          (v_proj): Linear(in_features=1024, out_features=1024, bias=True)
          (q_proj): Linear(in_features=1024, out_features=1024, bias=True)
          (out_proj): Linear(in_features=1024, out_features=1024, bias=True)
        )
        (self_attn_layer_norm): LayerNorm((1024,), eps=1e-05, elementwise_affine=True)
        (activation_fn): GELUActivation()
        (fc1): Linear(in_features=1024, out_features=4096, bias=True)
        (fc2): Linear(in_features=4096, out_features=1024, bias=True)
        (final_layer_norm): LayerNorm((1024,), eps=1e-05, elementwise_affine=True)
      )
      (17): WhisperEncoderLayer(
        (self_attn): WhisperAttention(
          (k_proj): Linear(in_features=1024, out_features=1024, bias=False)
          (v_proj): Linear(in_features=1024, out_features=1024, bias=True)
          (q_proj): Linear(in_features=1024, out_features=1024, bias=True)
          (out_proj): Linear(in_features=1024, out_features=1024, bias=True)
        )
        (self_attn_layer_norm): LayerNorm((1024,), eps=1e-05, elementwise_affine=True)
        (activation_fn): GELUActivation()
        (fc1): Linear(in_features=1024, out_features=4096, bias=True)
        (fc2): Linear(in_features=4096, out_features=1024, bias=True)
        (final_layer_norm): LayerNorm((1024,), eps=1e-05, elementwise_affine=True)
      )
      (18): WhisperEncoderLayer(
        (self_attn): WhisperAttention(
          (k_proj): Linear(in_features=1024, out_features=1024, bias=False)
          (v_proj): Linear(in_features=1024, out_features=1024, bias=True)
          (q_proj): Linear(in_features=1024, out_features=1024, bias=True)
          (out_proj): Linear(in_features=1024, out_features=1024, bias=True)
        )
        (self_attn_layer_norm): LayerNorm((1024,), eps=1e-05, elementwise_affine=True)
        (activation_fn): GELUActivation()
        (fc1): Linear(in_features=1024, out_features=4096, bias=True)
        (fc2): Linear(in_features=4096, out_features=1024, bias=True)
        (final_layer_norm): LayerNorm((1024,), eps=1e-05, elementwise_affine=True)
      )
      (19): WhisperEncoderLayer(
        (self_attn): WhisperAttention(
          (k_proj): Linear(in_features=1024, out_features=1024, bias=False)
          (v_proj): Linear(in_features=1024, out_features=1024, bias=True)
          (q_proj): Linear(in_features=1024, out_features=1024, bias=True)
          (out_proj): Linear(in_features=1024, out_features=1024, bias=True)
        )
        (self_attn_layer_norm): LayerNorm((1024,), eps=1e-05, elementwise_affine=True)
        (activation_fn): GELUActivation()
        (fc1): Linear(in_features=1024, out_features=4096, bias=True)
        (fc2): Linear(in_features=4096, out_features=1024, bias=True)
        (final_layer_norm): LayerNorm((1024,), eps=1e-05, elementwise_affine=True)
      )
      (20): WhisperEncoderLayer(
        (self_attn): WhisperAttention(
          (k_proj): Linear(in_features=1024, out_features=1024, bias=False)
          (v_proj): Linear(in_features=1024, out_features=1024, bias=True)
          (q_proj): Linear(in_features=1024, out_features=1024, bias=True)
          (out_proj): Linear(in_features=1024, out_features=1024, bias=True)
        )
        (self_attn_layer_norm): LayerNorm((1024,), eps=1e-05, elementwise_affine=True)
        (activation_fn): GELUActivation()
        (fc1): Linear(in_features=1024, out_features=4096, bias=True)
        (fc2): Linear(in_features=4096, out_features=1024, bias=True)
        (final_layer_norm): LayerNorm((1024,), eps=1e-05, elementwise_affine=True)
      )
      (21): WhisperEncoderLayer(
        (self_attn): WhisperAttention(
          (k_proj): Linear(in_features=1024, out_features=1024, bias=False)
          (v_proj): Linear(in_features=1024, out_features=1024, bias=True)
          (q_proj): Linear(in_features=1024, out_features=1024, bias=True)
          (out_proj): Linear(in_features=1024, out_features=1024, bias=True)
        )
        (self_attn_layer_norm): LayerNorm((1024,), eps=1e-05, elementwise_affine=True)
        (activation_fn): GELUActivation()
        (fc1): Linear(in_features=1024, out_features=4096, bias=True)
        (fc2): Linear(in_features=4096, out_features=1024, bias=True)
        (final_layer_norm): LayerNorm((1024,), eps=1e-05, elementwise_affine=True)
      )
      (22): WhisperEncoderLayer(
        (self_attn): WhisperAttention(
          (k_proj): Linear(in_features=1024, out_features=1024, bias=False)
          (v_proj): Linear(in_features=1024, out_features=1024, bias=True)
          (q_proj): Linear(in_features=1024, out_features=1024, bias=True)
          (out_proj): Linear(in_features=1024, out_features=1024, bias=True)
        )
        (self_attn_layer_norm): LayerNorm((1024,), eps=1e-05, elementwise_affine=True)
        (activation_fn): GELUActivation()
        (fc1): Linear(in_features=1024, out_features=4096, bias=True)
        (fc2): Linear(in_features=4096, out_features=1024, bias=True)
        (final_layer_norm): LayerNorm((1024,), eps=1e-05, elementwise_affine=True)
      )
      (23): WhisperEncoderLayer(
        (self_attn): WhisperAttention(
          (k_proj): Linear(in_features=1024, out_features=1024, bias=False)
          (v_proj): Linear(in_features=1024, out_features=1024, bias=True)
          (q_proj): Linear(in_features=1024, out_features=1024, bias=True)
          (out_proj): Linear(in_features=1024, out_features=1024, bias=True)
        )
        (self_attn_layer_norm): LayerNorm((1024,), eps=1e-05, elementwise_affine=True)
        (activation_fn): GELUActivation()
        (fc1): Linear(in_features=1024, out_features=4096, bias=True)
        (fc2): Linear(in_features=4096, out_features=1024, bias=True)
        (final_layer_norm): LayerNorm((1024,), eps=1e-05, elementwise_affine=True)
      )
    )
    (layer_norm): LayerNorm((1024,), eps=1e-05, elementwise_affine=True)
  )
  (whisper_proj_cnn1): Conv1d(1024, 1024, kernel_size=(10,), stride=(5,), padding=(1,))
  (whisper_proj_cnn2): Conv1d(1024, 1024, kernel_size=(10,), stride=(10,), padding=(1,))
  (whisper_proj): Linear(in_features=1024, out_features=4096, bias=True)
  (whisper_proj_norm): RMSNorm()
  (whisper_proj_f1): Linear(in_features=4096, out_features=16384, bias=False)
  (whisper_proj_f2): Linear(in_features=16384, out_features=4096, bias=False)
  (whisper_proj_f3): Linear(in_features=4096, out_features=16384, bias=False)
  (llama): Transformer(
    (tok_embeddings): Embedding(32000, 4096)
    (layers): ModuleList(
      (0): TransformerBlock(
        (attention): Attention(
          (wq): Linear(in_features=4096, out_features=4096, bias=True)
          (wk): Linear(in_features=4096, out_features=4096, bias=False)
          (wv): Linear(in_features=4096, out_features=4096, bias=False)
          (wo): Linear(in_features=4096, out_features=4096, bias=True)
          (lora_wq_l1): Linear(in_features=4096, out_features=16, bias=False)
          (lora_wq_l2): Linear(in_features=16, out_features=4096, bias=False)
          (lora_wk_l1): Linear(in_features=4096, out_features=16, bias=False)
          (lora_wk_l2): Linear(in_features=16, out_features=4096, bias=False)
          (lora_wv_l1): Linear(in_features=4096, out_features=16, bias=False)
          (lora_wv_l2): Linear(in_features=16, out_features=4096, bias=False)
          (lora_wo_l1): Linear(in_features=4096, out_features=16, bias=False)
          (lora_wo_l2): Linear(in_features=16, out_features=4096, bias=False)
        )
        (feed_forward): FeedForward(
          (w1): Linear(in_features=4096, out_features=11008, bias=True)
          (w2): Linear(in_features=11008, out_features=4096, bias=True)
          (w3): Linear(in_features=4096, out_features=11008, bias=True)
          (lora_w1_l1): Linear(in_features=4096, out_features=16, bias=False)
          (lora_w1_l2): Linear(in_features=16, out_features=11008, bias=False)
          (lora_w2_l1): Linear(in_features=11008, out_features=16, bias=False)
          (lora_w2_l2): Linear(in_features=16, out_features=4096, bias=False)
          (lora_w3_l1): Linear(in_features=4096, out_features=16, bias=False)
          (lora_w3_l2): Linear(in_features=16, out_features=11008, bias=False)
        )
        (attention_norm): RMSNorm()
        (ffn_norm): RMSNorm()
      )
      (1): TransformerBlock(
        (attention): Attention(
          (wq): Linear(in_features=4096, out_features=4096, bias=True)
          (wk): Linear(in_features=4096, out_features=4096, bias=False)
          (wv): Linear(in_features=4096, out_features=4096, bias=False)
          (wo): Linear(in_features=4096, out_features=4096, bias=True)
          (lora_wq_l1): Linear(in_features=4096, out_features=16, bias=False)
          (lora_wq_l2): Linear(in_features=16, out_features=4096, bias=False)
          (lora_wk_l1): Linear(in_features=4096, out_features=16, bias=False)
          (lora_wk_l2): Linear(in_features=16, out_features=4096, bias=False)
          (lora_wv_l1): Linear(in_features=4096, out_features=16, bias=False)
          (lora_wv_l2): Linear(in_features=16, out_features=4096, bias=False)
          (lora_wo_l1): Linear(in_features=4096, out_features=16, bias=False)
          (lora_wo_l2): Linear(in_features=16, out_features=4096, bias=False)
        )
        (feed_forward): FeedForward(
          (w1): Linear(in_features=4096, out_features=11008, bias=True)
          (w2): Linear(in_features=11008, out_features=4096, bias=True)
          (w3): Linear(in_features=4096, out_features=11008, bias=True)
          (lora_w1_l1): Linear(in_features=4096, out_features=16, bias=False)
          (lora_w1_l2): Linear(in_features=16, out_features=11008, bias=False)
          (lora_w2_l1): Linear(in_features=11008, out_features=16, bias=False)
          (lora_w2_l2): Linear(in_features=16, out_features=4096, bias=False)
          (lora_w3_l1): Linear(in_features=4096, out_features=16, bias=False)
          (lora_w3_l2): Linear(in_features=16, out_features=11008, bias=False)
        )
        (attention_norm): RMSNorm()
        (ffn_norm): RMSNorm()
      )
      (2): TransformerBlock(
        (attention): Attention(
          (wq): Linear(in_features=4096, out_features=4096, bias=True)
          (wk): Linear(in_features=4096, out_features=4096, bias=False)
          (wv): Linear(in_features=4096, out_features=4096, bias=False)
          (wo): Linear(in_features=4096, out_features=4096, bias=True)
          (lora_wq_l1): Linear(in_features=4096, out_features=16, bias=False)
          (lora_wq_l2): Linear(in_features=16, out_features=4096, bias=False)
          (lora_wk_l1): Linear(in_features=4096, out_features=16, bias=False)
          (lora_wk_l2): Linear(in_features=16, out_features=4096, bias=False)
          (lora_wv_l1): Linear(in_features=4096, out_features=16, bias=False)
          (lora_wv_l2): Linear(in_features=16, out_features=4096, bias=False)
          (lora_wo_l1): Linear(in_features=4096, out_features=16, bias=False)
          (lora_wo_l2): Linear(in_features=16, out_features=4096, bias=False)
        )
        (feed_forward): FeedForward(
          (w1): Linear(in_features=4096, out_features=11008, bias=True)
          (w2): Linear(in_features=11008, out_features=4096, bias=True)
          (w3): Linear(in_features=4096, out_features=11008, bias=True)
          (lora_w1_l1): Linear(in_features=4096, out_features=16, bias=False)
          (lora_w1_l2): Linear(in_features=16, out_features=11008, bias=False)
          (lora_w2_l1): Linear(in_features=11008, out_features=16, bias=False)
          (lora_w2_l2): Linear(in_features=16, out_features=4096, bias=False)
          (lora_w3_l1): Linear(in_features=4096, out_features=16, bias=False)
          (lora_w3_l2): Linear(in_features=16, out_features=11008, bias=False)
        )
        (attention_norm): RMSNorm()
        (ffn_norm): RMSNorm()
      )
      (3): TransformerBlock(
        (attention): Attention(
          (wq): Linear(in_features=4096, out_features=4096, bias=True)
          (wk): Linear(in_features=4096, out_features=4096, bias=False)
          (wv): Linear(in_features=4096, out_features=4096, bias=False)
          (wo): Linear(in_features=4096, out_features=4096, bias=True)
          (lora_wq_l1): Linear(in_features=4096, out_features=16, bias=False)
          (lora_wq_l2): Linear(in_features=16, out_features=4096, bias=False)
          (lora_wk_l1): Linear(in_features=4096, out_features=16, bias=False)
          (lora_wk_l2): Linear(in_features=16, out_features=4096, bias=False)
          (lora_wv_l1): Linear(in_features=4096, out_features=16, bias=False)
          (lora_wv_l2): Linear(in_features=16, out_features=4096, bias=False)
          (lora_wo_l1): Linear(in_features=4096, out_features=16, bias=False)
          (lora_wo_l2): Linear(in_features=16, out_features=4096, bias=False)
        )
        (feed_forward): FeedForward(
          (w1): Linear(in_features=4096, out_features=11008, bias=True)
          (w2): Linear(in_features=11008, out_features=4096, bias=True)
          (w3): Linear(in_features=4096, out_features=11008, bias=True)
          (lora_w1_l1): Linear(in_features=4096, out_features=16, bias=False)
          (lora_w1_l2): Linear(in_features=16, out_features=11008, bias=False)
          (lora_w2_l1): Linear(in_features=11008, out_features=16, bias=False)
          (lora_w2_l2): Linear(in_features=16, out_features=4096, bias=False)
          (lora_w3_l1): Linear(in_features=4096, out_features=16, bias=False)
          (lora_w3_l2): Linear(in_features=16, out_features=11008, bias=False)
        )
        (attention_norm): RMSNorm()
        (ffn_norm): RMSNorm()
      )
      (4): TransformerBlock(
        (attention): Attention(
          (wq): Linear(in_features=4096, out_features=4096, bias=True)
          (wk): Linear(in_features=4096, out_features=4096, bias=False)
          (wv): Linear(in_features=4096, out_features=4096, bias=False)
          (wo): Linear(in_features=4096, out_features=4096, bias=True)
          (lora_wq_l1): Linear(in_features=4096, out_features=16, bias=False)
          (lora_wq_l2): Linear(in_features=16, out_features=4096, bias=False)
          (lora_wk_l1): Linear(in_features=4096, out_features=16, bias=False)
          (lora_wk_l2): Linear(in_features=16, out_features=4096, bias=False)
          (lora_wv_l1): Linear(in_features=4096, out_features=16, bias=False)
          (lora_wv_l2): Linear(in_features=16, out_features=4096, bias=False)
          (lora_wo_l1): Linear(in_features=4096, out_features=16, bias=False)
          (lora_wo_l2): Linear(in_features=16, out_features=4096, bias=False)
        )
        (feed_forward): FeedForward(
          (w1): Linear(in_features=4096, out_features=11008, bias=True)
          (w2): Linear(in_features=11008, out_features=4096, bias=True)
          (w3): Linear(in_features=4096, out_features=11008, bias=True)
          (lora_w1_l1): Linear(in_features=4096, out_features=16, bias=False)
          (lora_w1_l2): Linear(in_features=16, out_features=11008, bias=False)
          (lora_w2_l1): Linear(in_features=11008, out_features=16, bias=False)
          (lora_w2_l2): Linear(in_features=16, out_features=4096, bias=False)
          (lora_w3_l1): Linear(in_features=4096, out_features=16, bias=False)
          (lora_w3_l2): Linear(in_features=16, out_features=11008, bias=False)
        )
        (attention_norm): RMSNorm()
        (ffn_norm): RMSNorm()
      )
      (5): TransformerBlock(
        (attention): Attention(
          (wq): Linear(in_features=4096, out_features=4096, bias=True)
          (wk): Linear(in_features=4096, out_features=4096, bias=False)
          (wv): Linear(in_features=4096, out_features=4096, bias=False)
          (wo): Linear(in_features=4096, out_features=4096, bias=True)
          (lora_wq_l1): Linear(in_features=4096, out_features=16, bias=False)
          (lora_wq_l2): Linear(in_features=16, out_features=4096, bias=False)
          (lora_wk_l1): Linear(in_features=4096, out_features=16, bias=False)
          (lora_wk_l2): Linear(in_features=16, out_features=4096, bias=False)
          (lora_wv_l1): Linear(in_features=4096, out_features=16, bias=False)
          (lora_wv_l2): Linear(in_features=16, out_features=4096, bias=False)
          (lora_wo_l1): Linear(in_features=4096, out_features=16, bias=False)
          (lora_wo_l2): Linear(in_features=16, out_features=4096, bias=False)
        )
        (feed_forward): FeedForward(
          (w1): Linear(in_features=4096, out_features=11008, bias=True)
          (w2): Linear(in_features=11008, out_features=4096, bias=True)
          (w3): Linear(in_features=4096, out_features=11008, bias=True)
          (lora_w1_l1): Linear(in_features=4096, out_features=16, bias=False)
          (lora_w1_l2): Linear(in_features=16, out_features=11008, bias=False)
          (lora_w2_l1): Linear(in_features=11008, out_features=16, bias=False)
          (lora_w2_l2): Linear(in_features=16, out_features=4096, bias=False)
          (lora_w3_l1): Linear(in_features=4096, out_features=16, bias=False)
          (lora_w3_l2): Linear(in_features=16, out_features=11008, bias=False)
        )
        (attention_norm): RMSNorm()
        (ffn_norm): RMSNorm()
      )
      (6): TransformerBlock(
        (attention): Attention(
          (wq): Linear(in_features=4096, out_features=4096, bias=True)
          (wk): Linear(in_features=4096, out_features=4096, bias=False)
          (wv): Linear(in_features=4096, out_features=4096, bias=False)
          (wo): Linear(in_features=4096, out_features=4096, bias=True)
          (lora_wq_l1): Linear(in_features=4096, out_features=16, bias=False)
          (lora_wq_l2): Linear(in_features=16, out_features=4096, bias=False)
          (lora_wk_l1): Linear(in_features=4096, out_features=16, bias=False)
          (lora_wk_l2): Linear(in_features=16, out_features=4096, bias=False)
          (lora_wv_l1): Linear(in_features=4096, out_features=16, bias=False)
          (lora_wv_l2): Linear(in_features=16, out_features=4096, bias=False)
          (lora_wo_l1): Linear(in_features=4096, out_features=16, bias=False)
          (lora_wo_l2): Linear(in_features=16, out_features=4096, bias=False)
        )
        (feed_forward): FeedForward(
          (w1): Linear(in_features=4096, out_features=11008, bias=True)
          (w2): Linear(in_features=11008, out_features=4096, bias=True)
          (w3): Linear(in_features=4096, out_features=11008, bias=True)
          (lora_w1_l1): Linear(in_features=4096, out_features=16, bias=False)
          (lora_w1_l2): Linear(in_features=16, out_features=11008, bias=False)
          (lora_w2_l1): Linear(in_features=11008, out_features=16, bias=False)
          (lora_w2_l2): Linear(in_features=16, out_features=4096, bias=False)
          (lora_w3_l1): Linear(in_features=4096, out_features=16, bias=False)
          (lora_w3_l2): Linear(in_features=16, out_features=11008, bias=False)
        )
        (attention_norm): RMSNorm()
        (ffn_norm): RMSNorm()
      )
      (7): TransformerBlock(
        (attention): Attention(
          (wq): Linear(in_features=4096, out_features=4096, bias=True)
          (wk): Linear(in_features=4096, out_features=4096, bias=False)
          (wv): Linear(in_features=4096, out_features=4096, bias=False)
          (wo): Linear(in_features=4096, out_features=4096, bias=True)
          (lora_wq_l1): Linear(in_features=4096, out_features=16, bias=False)
          (lora_wq_l2): Linear(in_features=16, out_features=4096, bias=False)
          (lora_wk_l1): Linear(in_features=4096, out_features=16, bias=False)
          (lora_wk_l2): Linear(in_features=16, out_features=4096, bias=False)
          (lora_wv_l1): Linear(in_features=4096, out_features=16, bias=False)
          (lora_wv_l2): Linear(in_features=16, out_features=4096, bias=False)
          (lora_wo_l1): Linear(in_features=4096, out_features=16, bias=False)
          (lora_wo_l2): Linear(in_features=16, out_features=4096, bias=False)
        )
        (feed_forward): FeedForward(
          (w1): Linear(in_features=4096, out_features=11008, bias=True)
          (w2): Linear(in_features=11008, out_features=4096, bias=True)
          (w3): Linear(in_features=4096, out_features=11008, bias=True)
          (lora_w1_l1): Linear(in_features=4096, out_features=16, bias=False)
          (lora_w1_l2): Linear(in_features=16, out_features=11008, bias=False)
          (lora_w2_l1): Linear(in_features=11008, out_features=16, bias=False)
          (lora_w2_l2): Linear(in_features=16, out_features=4096, bias=False)
          (lora_w3_l1): Linear(in_features=4096, out_features=16, bias=False)
          (lora_w3_l2): Linear(in_features=16, out_features=11008, bias=False)
        )
        (attention_norm): RMSNorm()
        (ffn_norm): RMSNorm()
      )
      (8): TransformerBlock(
        (attention): Attention(
          (wq): Linear(in_features=4096, out_features=4096, bias=True)
          (wk): Linear(in_features=4096, out_features=4096, bias=False)
          (wv): Linear(in_features=4096, out_features=4096, bias=False)
          (wo): Linear(in_features=4096, out_features=4096, bias=True)
          (lora_wq_l1): Linear(in_features=4096, out_features=16, bias=False)
          (lora_wq_l2): Linear(in_features=16, out_features=4096, bias=False)
          (lora_wk_l1): Linear(in_features=4096, out_features=16, bias=False)
          (lora_wk_l2): Linear(in_features=16, out_features=4096, bias=False)
          (lora_wv_l1): Linear(in_features=4096, out_features=16, bias=False)
          (lora_wv_l2): Linear(in_features=16, out_features=4096, bias=False)
          (lora_wo_l1): Linear(in_features=4096, out_features=16, bias=False)
          (lora_wo_l2): Linear(in_features=16, out_features=4096, bias=False)
        )
        (feed_forward): FeedForward(
          (w1): Linear(in_features=4096, out_features=11008, bias=True)
          (w2): Linear(in_features=11008, out_features=4096, bias=True)
          (w3): Linear(in_features=4096, out_features=11008, bias=True)
          (lora_w1_l1): Linear(in_features=4096, out_features=16, bias=False)
          (lora_w1_l2): Linear(in_features=16, out_features=11008, bias=False)
          (lora_w2_l1): Linear(in_features=11008, out_features=16, bias=False)
          (lora_w2_l2): Linear(in_features=16, out_features=4096, bias=False)
          (lora_w3_l1): Linear(in_features=4096, out_features=16, bias=False)
          (lora_w3_l2): Linear(in_features=16, out_features=11008, bias=False)
        )
        (attention_norm): RMSNorm()
        (ffn_norm): RMSNorm()
      )
      (9): TransformerBlock(
        (attention): Attention(
          (wq): Linear(in_features=4096, out_features=4096, bias=True)
          (wk): Linear(in_features=4096, out_features=4096, bias=False)
          (wv): Linear(in_features=4096, out_features=4096, bias=False)
          (wo): Linear(in_features=4096, out_features=4096, bias=True)
          (lora_wq_l1): Linear(in_features=4096, out_features=16, bias=False)
          (lora_wq_l2): Linear(in_features=16, out_features=4096, bias=False)
          (lora_wk_l1): Linear(in_features=4096, out_features=16, bias=False)
          (lora_wk_l2): Linear(in_features=16, out_features=4096, bias=False)
          (lora_wv_l1): Linear(in_features=4096, out_features=16, bias=False)
          (lora_wv_l2): Linear(in_features=16, out_features=4096, bias=False)
          (lora_wo_l1): Linear(in_features=4096, out_features=16, bias=False)
          (lora_wo_l2): Linear(in_features=16, out_features=4096, bias=False)
        )
        (feed_forward): FeedForward(
          (w1): Linear(in_features=4096, out_features=11008, bias=True)
          (w2): Linear(in_features=11008, out_features=4096, bias=True)
          (w3): Linear(in_features=4096, out_features=11008, bias=True)
          (lora_w1_l1): Linear(in_features=4096, out_features=16, bias=False)
          (lora_w1_l2): Linear(in_features=16, out_features=11008, bias=False)
          (lora_w2_l1): Linear(in_features=11008, out_features=16, bias=False)
          (lora_w2_l2): Linear(in_features=16, out_features=4096, bias=False)
          (lora_w3_l1): Linear(in_features=4096, out_features=16, bias=False)
          (lora_w3_l2): Linear(in_features=16, out_features=11008, bias=False)
        )
        (attention_norm): RMSNorm()
        (ffn_norm): RMSNorm()
      )
      (10): TransformerBlock(
        (attention): Attention(
          (wq): Linear(in_features=4096, out_features=4096, bias=True)
          (wk): Linear(in_features=4096, out_features=4096, bias=False)
          (wv): Linear(in_features=4096, out_features=4096, bias=False)
          (wo): Linear(in_features=4096, out_features=4096, bias=True)
          (lora_wq_l1): Linear(in_features=4096, out_features=16, bias=False)
          (lora_wq_l2): Linear(in_features=16, out_features=4096, bias=False)
          (lora_wk_l1): Linear(in_features=4096, out_features=16, bias=False)
          (lora_wk_l2): Linear(in_features=16, out_features=4096, bias=False)
          (lora_wv_l1): Linear(in_features=4096, out_features=16, bias=False)
          (lora_wv_l2): Linear(in_features=16, out_features=4096, bias=False)
          (lora_wo_l1): Linear(in_features=4096, out_features=16, bias=False)
          (lora_wo_l2): Linear(in_features=16, out_features=4096, bias=False)
        )
        (feed_forward): FeedForward(
          (w1): Linear(in_features=4096, out_features=11008, bias=True)
          (w2): Linear(in_features=11008, out_features=4096, bias=True)
          (w3): Linear(in_features=4096, out_features=11008, bias=True)
          (lora_w1_l1): Linear(in_features=4096, out_features=16, bias=False)
          (lora_w1_l2): Linear(in_features=16, out_features=11008, bias=False)
          (lora_w2_l1): Linear(in_features=11008, out_features=16, bias=False)
          (lora_w2_l2): Linear(in_features=16, out_features=4096, bias=False)
          (lora_w3_l1): Linear(in_features=4096, out_features=16, bias=False)
          (lora_w3_l2): Linear(in_features=16, out_features=11008, bias=False)
        )
        (attention_norm): RMSNorm()
        (ffn_norm): RMSNorm()
      )
      (11): TransformerBlock(
        (attention): Attention(
          (wq): Linear(in_features=4096, out_features=4096, bias=True)
          (wk): Linear(in_features=4096, out_features=4096, bias=False)
          (wv): Linear(in_features=4096, out_features=4096, bias=False)
          (wo): Linear(in_features=4096, out_features=4096, bias=True)
          (lora_wq_l1): Linear(in_features=4096, out_features=16, bias=False)
          (lora_wq_l2): Linear(in_features=16, out_features=4096, bias=False)
          (lora_wk_l1): Linear(in_features=4096, out_features=16, bias=False)
          (lora_wk_l2): Linear(in_features=16, out_features=4096, bias=False)
          (lora_wv_l1): Linear(in_features=4096, out_features=16, bias=False)
          (lora_wv_l2): Linear(in_features=16, out_features=4096, bias=False)
          (lora_wo_l1): Linear(in_features=4096, out_features=16, bias=False)
          (lora_wo_l2): Linear(in_features=16, out_features=4096, bias=False)
        )
        (feed_forward): FeedForward(
          (w1): Linear(in_features=4096, out_features=11008, bias=True)
          (w2): Linear(in_features=11008, out_features=4096, bias=True)
          (w3): Linear(in_features=4096, out_features=11008, bias=True)
          (lora_w1_l1): Linear(in_features=4096, out_features=16, bias=False)
          (lora_w1_l2): Linear(in_features=16, out_features=11008, bias=False)
          (lora_w2_l1): Linear(in_features=11008, out_features=16, bias=False)
          (lora_w2_l2): Linear(in_features=16, out_features=4096, bias=False)
          (lora_w3_l1): Linear(in_features=4096, out_features=16, bias=False)
          (lora_w3_l2): Linear(in_features=16, out_features=11008, bias=False)
        )
        (attention_norm): RMSNorm()
        (ffn_norm): RMSNorm()
      )
      (12): TransformerBlock(
        (attention): Attention(
          (wq): Linear(in_features=4096, out_features=4096, bias=True)
          (wk): Linear(in_features=4096, out_features=4096, bias=False)
          (wv): Linear(in_features=4096, out_features=4096, bias=False)
          (wo): Linear(in_features=4096, out_features=4096, bias=True)
          (lora_wq_l1): Linear(in_features=4096, out_features=16, bias=False)
          (lora_wq_l2): Linear(in_features=16, out_features=4096, bias=False)
          (lora_wk_l1): Linear(in_features=4096, out_features=16, bias=False)
          (lora_wk_l2): Linear(in_features=16, out_features=4096, bias=False)
          (lora_wv_l1): Linear(in_features=4096, out_features=16, bias=False)
          (lora_wv_l2): Linear(in_features=16, out_features=4096, bias=False)
          (lora_wo_l1): Linear(in_features=4096, out_features=16, bias=False)
          (lora_wo_l2): Linear(in_features=16, out_features=4096, bias=False)
        )
        (feed_forward): FeedForward(
          (w1): Linear(in_features=4096, out_features=11008, bias=True)
          (w2): Linear(in_features=11008, out_features=4096, bias=True)
          (w3): Linear(in_features=4096, out_features=11008, bias=True)
          (lora_w1_l1): Linear(in_features=4096, out_features=16, bias=False)
          (lora_w1_l2): Linear(in_features=16, out_features=11008, bias=False)
          (lora_w2_l1): Linear(in_features=11008, out_features=16, bias=False)
          (lora_w2_l2): Linear(in_features=16, out_features=4096, bias=False)
          (lora_w3_l1): Linear(in_features=4096, out_features=16, bias=False)
          (lora_w3_l2): Linear(in_features=16, out_features=11008, bias=False)
        )
        (attention_norm): RMSNorm()
        (ffn_norm): RMSNorm()
      )
      (13): TransformerBlock(
        (attention): Attention(
          (wq): Linear(in_features=4096, out_features=4096, bias=True)
          (wk): Linear(in_features=4096, out_features=4096, bias=False)
          (wv): Linear(in_features=4096, out_features=4096, bias=False)
          (wo): Linear(in_features=4096, out_features=4096, bias=True)
          (lora_wq_l1): Linear(in_features=4096, out_features=16, bias=False)
          (lora_wq_l2): Linear(in_features=16, out_features=4096, bias=False)
          (lora_wk_l1): Linear(in_features=4096, out_features=16, bias=False)
          (lora_wk_l2): Linear(in_features=16, out_features=4096, bias=False)
          (lora_wv_l1): Linear(in_features=4096, out_features=16, bias=False)
          (lora_wv_l2): Linear(in_features=16, out_features=4096, bias=False)
          (lora_wo_l1): Linear(in_features=4096, out_features=16, bias=False)
          (lora_wo_l2): Linear(in_features=16, out_features=4096, bias=False)
        )
        (feed_forward): FeedForward(
          (w1): Linear(in_features=4096, out_features=11008, bias=True)
          (w2): Linear(in_features=11008, out_features=4096, bias=True)
          (w3): Linear(in_features=4096, out_features=11008, bias=True)
          (lora_w1_l1): Linear(in_features=4096, out_features=16, bias=False)
          (lora_w1_l2): Linear(in_features=16, out_features=11008, bias=False)
          (lora_w2_l1): Linear(in_features=11008, out_features=16, bias=False)
          (lora_w2_l2): Linear(in_features=16, out_features=4096, bias=False)
          (lora_w3_l1): Linear(in_features=4096, out_features=16, bias=False)
          (lora_w3_l2): Linear(in_features=16, out_features=11008, bias=False)
        )
        (attention_norm): RMSNorm()
        (ffn_norm): RMSNorm()
      )
      (14): TransformerBlock(
        (attention): Attention(
          (wq): Linear(in_features=4096, out_features=4096, bias=True)
          (wk): Linear(in_features=4096, out_features=4096, bias=False)
          (wv): Linear(in_features=4096, out_features=4096, bias=False)
          (wo): Linear(in_features=4096, out_features=4096, bias=True)
          (lora_wq_l1): Linear(in_features=4096, out_features=16, bias=False)
          (lora_wq_l2): Linear(in_features=16, out_features=4096, bias=False)
          (lora_wk_l1): Linear(in_features=4096, out_features=16, bias=False)
          (lora_wk_l2): Linear(in_features=16, out_features=4096, bias=False)
          (lora_wv_l1): Linear(in_features=4096, out_features=16, bias=False)
          (lora_wv_l2): Linear(in_features=16, out_features=4096, bias=False)
          (lora_wo_l1): Linear(in_features=4096, out_features=16, bias=False)
          (lora_wo_l2): Linear(in_features=16, out_features=4096, bias=False)
        )
        (feed_forward): FeedForward(
          (w1): Linear(in_features=4096, out_features=11008, bias=True)
          (w2): Linear(in_features=11008, out_features=4096, bias=True)
          (w3): Linear(in_features=4096, out_features=11008, bias=True)
          (lora_w1_l1): Linear(in_features=4096, out_features=16, bias=False)
          (lora_w1_l2): Linear(in_features=16, out_features=11008, bias=False)
          (lora_w2_l1): Linear(in_features=11008, out_features=16, bias=False)
          (lora_w2_l2): Linear(in_features=16, out_features=4096, bias=False)
          (lora_w3_l1): Linear(in_features=4096, out_features=16, bias=False)
          (lora_w3_l2): Linear(in_features=16, out_features=11008, bias=False)
        )
        (attention_norm): RMSNorm()
        (ffn_norm): RMSNorm()
      )
      (15): TransformerBlock(
        (attention): Attention(
          (wq): Linear(in_features=4096, out_features=4096, bias=True)
          (wk): Linear(in_features=4096, out_features=4096, bias=False)
          (wv): Linear(in_features=4096, out_features=4096, bias=False)
          (wo): Linear(in_features=4096, out_features=4096, bias=True)
          (lora_wq_l1): Linear(in_features=4096, out_features=16, bias=False)
          (lora_wq_l2): Linear(in_features=16, out_features=4096, bias=False)
          (lora_wk_l1): Linear(in_features=4096, out_features=16, bias=False)
          (lora_wk_l2): Linear(in_features=16, out_features=4096, bias=False)
          (lora_wv_l1): Linear(in_features=4096, out_features=16, bias=False)
          (lora_wv_l2): Linear(in_features=16, out_features=4096, bias=False)
          (lora_wo_l1): Linear(in_features=4096, out_features=16, bias=False)
          (lora_wo_l2): Linear(in_features=16, out_features=4096, bias=False)
        )
        (feed_forward): FeedForward(
          (w1): Linear(in_features=4096, out_features=11008, bias=True)
          (w2): Linear(in_features=11008, out_features=4096, bias=True)
          (w3): Linear(in_features=4096, out_features=11008, bias=True)
          (lora_w1_l1): Linear(in_features=4096, out_features=16, bias=False)
          (lora_w1_l2): Linear(in_features=16, out_features=11008, bias=False)
          (lora_w2_l1): Linear(in_features=11008, out_features=16, bias=False)
          (lora_w2_l2): Linear(in_features=16, out_features=4096, bias=False)
          (lora_w3_l1): Linear(in_features=4096, out_features=16, bias=False)
          (lora_w3_l2): Linear(in_features=16, out_features=11008, bias=False)
        )
        (attention_norm): RMSNorm()
        (ffn_norm): RMSNorm()
      )
      (16): TransformerBlock(
        (attention): Attention(
          (wq): Linear(in_features=4096, out_features=4096, bias=True)
          (wk): Linear(in_features=4096, out_features=4096, bias=False)
          (wv): Linear(in_features=4096, out_features=4096, bias=False)
          (wo): Linear(in_features=4096, out_features=4096, bias=True)
          (lora_wq_l1): Linear(in_features=4096, out_features=16, bias=False)
          (lora_wq_l2): Linear(in_features=16, out_features=4096, bias=False)
          (lora_wk_l1): Linear(in_features=4096, out_features=16, bias=False)
          (lora_wk_l2): Linear(in_features=16, out_features=4096, bias=False)
          (lora_wv_l1): Linear(in_features=4096, out_features=16, bias=False)
          (lora_wv_l2): Linear(in_features=16, out_features=4096, bias=False)
          (lora_wo_l1): Linear(in_features=4096, out_features=16, bias=False)
          (lora_wo_l2): Linear(in_features=16, out_features=4096, bias=False)
        )
        (feed_forward): FeedForward(
          (w1): Linear(in_features=4096, out_features=11008, bias=True)
          (w2): Linear(in_features=11008, out_features=4096, bias=True)
          (w3): Linear(in_features=4096, out_features=11008, bias=True)
          (lora_w1_l1): Linear(in_features=4096, out_features=16, bias=False)
          (lora_w1_l2): Linear(in_features=16, out_features=11008, bias=False)
          (lora_w2_l1): Linear(in_features=11008, out_features=16, bias=False)
          (lora_w2_l2): Linear(in_features=16, out_features=4096, bias=False)
          (lora_w3_l1): Linear(in_features=4096, out_features=16, bias=False)
          (lora_w3_l2): Linear(in_features=16, out_features=11008, bias=False)
        )
        (attention_norm): RMSNorm()
        (ffn_norm): RMSNorm()
      )
      (17): TransformerBlock(
        (attention): Attention(
          (wq): Linear(in_features=4096, out_features=4096, bias=True)
          (wk): Linear(in_features=4096, out_features=4096, bias=False)
          (wv): Linear(in_features=4096, out_features=4096, bias=False)
          (wo): Linear(in_features=4096, out_features=4096, bias=True)
          (lora_wq_l1): Linear(in_features=4096, out_features=16, bias=False)
          (lora_wq_l2): Linear(in_features=16, out_features=4096, bias=False)
          (lora_wk_l1): Linear(in_features=4096, out_features=16, bias=False)
          (lora_wk_l2): Linear(in_features=16, out_features=4096, bias=False)
          (lora_wv_l1): Linear(in_features=4096, out_features=16, bias=False)
          (lora_wv_l2): Linear(in_features=16, out_features=4096, bias=False)
          (lora_wo_l1): Linear(in_features=4096, out_features=16, bias=False)
          (lora_wo_l2): Linear(in_features=16, out_features=4096, bias=False)
        )
        (feed_forward): FeedForward(
          (w1): Linear(in_features=4096, out_features=11008, bias=True)
          (w2): Linear(in_features=11008, out_features=4096, bias=True)
          (w3): Linear(in_features=4096, out_features=11008, bias=True)
          (lora_w1_l1): Linear(in_features=4096, out_features=16, bias=False)
          (lora_w1_l2): Linear(in_features=16, out_features=11008, bias=False)
          (lora_w2_l1): Linear(in_features=11008, out_features=16, bias=False)
          (lora_w2_l2): Linear(in_features=16, out_features=4096, bias=False)
          (lora_w3_l1): Linear(in_features=4096, out_features=16, bias=False)
          (lora_w3_l2): Linear(in_features=16, out_features=11008, bias=False)
        )
        (attention_norm): RMSNorm()
        (ffn_norm): RMSNorm()
      )
      (18): TransformerBlock(
        (attention): Attention(
          (wq): Linear(in_features=4096, out_features=4096, bias=True)
          (wk): Linear(in_features=4096, out_features=4096, bias=False)
          (wv): Linear(in_features=4096, out_features=4096, bias=False)
          (wo): Linear(in_features=4096, out_features=4096, bias=True)
          (lora_wq_l1): Linear(in_features=4096, out_features=16, bias=False)
          (lora_wq_l2): Linear(in_features=16, out_features=4096, bias=False)
          (lora_wk_l1): Linear(in_features=4096, out_features=16, bias=False)
          (lora_wk_l2): Linear(in_features=16, out_features=4096, bias=False)
          (lora_wv_l1): Linear(in_features=4096, out_features=16, bias=False)
          (lora_wv_l2): Linear(in_features=16, out_features=4096, bias=False)
          (lora_wo_l1): Linear(in_features=4096, out_features=16, bias=False)
          (lora_wo_l2): Linear(in_features=16, out_features=4096, bias=False)
        )
        (feed_forward): FeedForward(
          (w1): Linear(in_features=4096, out_features=11008, bias=True)
          (w2): Linear(in_features=11008, out_features=4096, bias=True)
          (w3): Linear(in_features=4096, out_features=11008, bias=True)
          (lora_w1_l1): Linear(in_features=4096, out_features=16, bias=False)
          (lora_w1_l2): Linear(in_features=16, out_features=11008, bias=False)
          (lora_w2_l1): Linear(in_features=11008, out_features=16, bias=False)
          (lora_w2_l2): Linear(in_features=16, out_features=4096, bias=False)
          (lora_w3_l1): Linear(in_features=4096, out_features=16, bias=False)
          (lora_w3_l2): Linear(in_features=16, out_features=11008, bias=False)
        )
        (attention_norm): RMSNorm()
        (ffn_norm): RMSNorm()
      )
      (19): TransformerBlock(
        (attention): Attention(
          (wq): Linear(in_features=4096, out_features=4096, bias=True)
          (wk): Linear(in_features=4096, out_features=4096, bias=False)
          (wv): Linear(in_features=4096, out_features=4096, bias=False)
          (wo): Linear(in_features=4096, out_features=4096, bias=True)
          (lora_wq_l1): Linear(in_features=4096, out_features=16, bias=False)
          (lora_wq_l2): Linear(in_features=16, out_features=4096, bias=False)
          (lora_wk_l1): Linear(in_features=4096, out_features=16, bias=False)
          (lora_wk_l2): Linear(in_features=16, out_features=4096, bias=False)
          (lora_wv_l1): Linear(in_features=4096, out_features=16, bias=False)
          (lora_wv_l2): Linear(in_features=16, out_features=4096, bias=False)
          (lora_wo_l1): Linear(in_features=4096, out_features=16, bias=False)
          (lora_wo_l2): Linear(in_features=16, out_features=4096, bias=False)
        )
        (feed_forward): FeedForward(
          (w1): Linear(in_features=4096, out_features=11008, bias=True)
          (w2): Linear(in_features=11008, out_features=4096, bias=True)
          (w3): Linear(in_features=4096, out_features=11008, bias=True)
          (lora_w1_l1): Linear(in_features=4096, out_features=16, bias=False)
          (lora_w1_l2): Linear(in_features=16, out_features=11008, bias=False)
          (lora_w2_l1): Linear(in_features=11008, out_features=16, bias=False)
          (lora_w2_l2): Linear(in_features=16, out_features=4096, bias=False)
          (lora_w3_l1): Linear(in_features=4096, out_features=16, bias=False)
          (lora_w3_l2): Linear(in_features=16, out_features=11008, bias=False)
        )
        (attention_norm): RMSNorm()
        (ffn_norm): RMSNorm()
      )
      (20): TransformerBlock(
        (attention): Attention(
          (wq): Linear(in_features=4096, out_features=4096, bias=True)
          (wk): Linear(in_features=4096, out_features=4096, bias=False)
          (wv): Linear(in_features=4096, out_features=4096, bias=False)
          (wo): Linear(in_features=4096, out_features=4096, bias=True)
          (lora_wq_l1): Linear(in_features=4096, out_features=16, bias=False)
          (lora_wq_l2): Linear(in_features=16, out_features=4096, bias=False)
          (lora_wk_l1): Linear(in_features=4096, out_features=16, bias=False)
          (lora_wk_l2): Linear(in_features=16, out_features=4096, bias=False)
          (lora_wv_l1): Linear(in_features=4096, out_features=16, bias=False)
          (lora_wv_l2): Linear(in_features=16, out_features=4096, bias=False)
          (lora_wo_l1): Linear(in_features=4096, out_features=16, bias=False)
          (lora_wo_l2): Linear(in_features=16, out_features=4096, bias=False)
        )
        (feed_forward): FeedForward(
          (w1): Linear(in_features=4096, out_features=11008, bias=True)
          (w2): Linear(in_features=11008, out_features=4096, bias=True)
          (w3): Linear(in_features=4096, out_features=11008, bias=True)
          (lora_w1_l1): Linear(in_features=4096, out_features=16, bias=False)
          (lora_w1_l2): Linear(in_features=16, out_features=11008, bias=False)
          (lora_w2_l1): Linear(in_features=11008, out_features=16, bias=False)
          (lora_w2_l2): Linear(in_features=16, out_features=4096, bias=False)
          (lora_w3_l1): Linear(in_features=4096, out_features=16, bias=False)
          (lora_w3_l2): Linear(in_features=16, out_features=11008, bias=False)
        )
        (attention_norm): RMSNorm()
        (ffn_norm): RMSNorm()
      )
      (21): TransformerBlock(
        (attention): Attention(
          (wq): Linear(in_features=4096, out_features=4096, bias=True)
          (wk): Linear(in_features=4096, out_features=4096, bias=False)
          (wv): Linear(in_features=4096, out_features=4096, bias=False)
          (wo): Linear(in_features=4096, out_features=4096, bias=True)
          (lora_wq_l1): Linear(in_features=4096, out_features=16, bias=False)
          (lora_wq_l2): Linear(in_features=16, out_features=4096, bias=False)
          (lora_wk_l1): Linear(in_features=4096, out_features=16, bias=False)
          (lora_wk_l2): Linear(in_features=16, out_features=4096, bias=False)
          (lora_wv_l1): Linear(in_features=4096, out_features=16, bias=False)
          (lora_wv_l2): Linear(in_features=16, out_features=4096, bias=False)
          (lora_wo_l1): Linear(in_features=4096, out_features=16, bias=False)
          (lora_wo_l2): Linear(in_features=16, out_features=4096, bias=False)
        )
        (feed_forward): FeedForward(
          (w1): Linear(in_features=4096, out_features=11008, bias=True)
          (w2): Linear(in_features=11008, out_features=4096, bias=True)
          (w3): Linear(in_features=4096, out_features=11008, bias=True)
          (lora_w1_l1): Linear(in_features=4096, out_features=16, bias=False)
          (lora_w1_l2): Linear(in_features=16, out_features=11008, bias=False)
          (lora_w2_l1): Linear(in_features=11008, out_features=16, bias=False)
          (lora_w2_l2): Linear(in_features=16, out_features=4096, bias=False)
          (lora_w3_l1): Linear(in_features=4096, out_features=16, bias=False)
          (lora_w3_l2): Linear(in_features=16, out_features=11008, bias=False)
        )
        (attention_norm): RMSNorm()
        (ffn_norm): RMSNorm()
      )
      (22): TransformerBlock(
        (attention): Attention(
          (wq): Linear(in_features=4096, out_features=4096, bias=True)
          (wk): Linear(in_features=4096, out_features=4096, bias=False)
          (wv): Linear(in_features=4096, out_features=4096, bias=False)
          (wo): Linear(in_features=4096, out_features=4096, bias=True)
          (lora_wq_l1): Linear(in_features=4096, out_features=16, bias=False)
          (lora_wq_l2): Linear(in_features=16, out_features=4096, bias=False)
          (lora_wk_l1): Linear(in_features=4096, out_features=16, bias=False)
          (lora_wk_l2): Linear(in_features=16, out_features=4096, bias=False)
          (lora_wv_l1): Linear(in_features=4096, out_features=16, bias=False)
          (lora_wv_l2): Linear(in_features=16, out_features=4096, bias=False)
          (lora_wo_l1): Linear(in_features=4096, out_features=16, bias=False)
          (lora_wo_l2): Linear(in_features=16, out_features=4096, bias=False)
        )
        (feed_forward): FeedForward(
          (w1): Linear(in_features=4096, out_features=11008, bias=True)
          (w2): Linear(in_features=11008, out_features=4096, bias=True)
          (w3): Linear(in_features=4096, out_features=11008, bias=True)
          (lora_w1_l1): Linear(in_features=4096, out_features=16, bias=False)
          (lora_w1_l2): Linear(in_features=16, out_features=11008, bias=False)
          (lora_w2_l1): Linear(in_features=11008, out_features=16, bias=False)
          (lora_w2_l2): Linear(in_features=16, out_features=4096, bias=False)
          (lora_w3_l1): Linear(in_features=4096, out_features=16, bias=False)
          (lora_w3_l2): Linear(in_features=16, out_features=11008, bias=False)
        )
        (attention_norm): RMSNorm()
        (ffn_norm): RMSNorm()
      )
      (23): TransformerBlock(
        (attention): Attention(
          (wq): Linear(in_features=4096, out_features=4096, bias=True)
          (wk): Linear(in_features=4096, out_features=4096, bias=False)
          (wv): Linear(in_features=4096, out_features=4096, bias=False)
          (wo): Linear(in_features=4096, out_features=4096, bias=True)
          (lora_wq_l1): Linear(in_features=4096, out_features=16, bias=False)
          (lora_wq_l2): Linear(in_features=16, out_features=4096, bias=False)
          (lora_wk_l1): Linear(in_features=4096, out_features=16, bias=False)
          (lora_wk_l2): Linear(in_features=16, out_features=4096, bias=False)
          (lora_wv_l1): Linear(in_features=4096, out_features=16, bias=False)
          (lora_wv_l2): Linear(in_features=16, out_features=4096, bias=False)
          (lora_wo_l1): Linear(in_features=4096, out_features=16, bias=False)
          (lora_wo_l2): Linear(in_features=16, out_features=4096, bias=False)
        )
        (feed_forward): FeedForward(
          (w1): Linear(in_features=4096, out_features=11008, bias=True)
          (w2): Linear(in_features=11008, out_features=4096, bias=True)
          (w3): Linear(in_features=4096, out_features=11008, bias=True)
          (lora_w1_l1): Linear(in_features=4096, out_features=16, bias=False)
          (lora_w1_l2): Linear(in_features=16, out_features=11008, bias=False)
          (lora_w2_l1): Linear(in_features=11008, out_features=16, bias=False)
          (lora_w2_l2): Linear(in_features=16, out_features=4096, bias=False)
          (lora_w3_l1): Linear(in_features=4096, out_features=16, bias=False)
          (lora_w3_l2): Linear(in_features=16, out_features=11008, bias=False)
        )
        (attention_norm): RMSNorm()
        (ffn_norm): RMSNorm()
      )
      (24): TransformerBlock(
        (attention): Attention(
          (wq): Linear(in_features=4096, out_features=4096, bias=True)
          (wk): Linear(in_features=4096, out_features=4096, bias=False)
          (wv): Linear(in_features=4096, out_features=4096, bias=False)
          (wo): Linear(in_features=4096, out_features=4096, bias=True)
          (lora_wq_l1): Linear(in_features=4096, out_features=16, bias=False)
          (lora_wq_l2): Linear(in_features=16, out_features=4096, bias=False)
          (lora_wk_l1): Linear(in_features=4096, out_features=16, bias=False)
          (lora_wk_l2): Linear(in_features=16, out_features=4096, bias=False)
          (lora_wv_l1): Linear(in_features=4096, out_features=16, bias=False)
          (lora_wv_l2): Linear(in_features=16, out_features=4096, bias=False)
          (lora_wo_l1): Linear(in_features=4096, out_features=16, bias=False)
          (lora_wo_l2): Linear(in_features=16, out_features=4096, bias=False)
        )
        (feed_forward): FeedForward(
          (w1): Linear(in_features=4096, out_features=11008, bias=True)
          (w2): Linear(in_features=11008, out_features=4096, bias=True)
          (w3): Linear(in_features=4096, out_features=11008, bias=True)
          (lora_w1_l1): Linear(in_features=4096, out_features=16, bias=False)
          (lora_w1_l2): Linear(in_features=16, out_features=11008, bias=False)
          (lora_w2_l1): Linear(in_features=11008, out_features=16, bias=False)
          (lora_w2_l2): Linear(in_features=16, out_features=4096, bias=False)
          (lora_w3_l1): Linear(in_features=4096, out_features=16, bias=False)
          (lora_w3_l2): Linear(in_features=16, out_features=11008, bias=False)
        )
        (attention_norm): RMSNorm()
        (ffn_norm): RMSNorm()
      )
      (25): TransformerBlock(
        (attention): Attention(
          (wq): Linear(in_features=4096, out_features=4096, bias=True)
          (wk): Linear(in_features=4096, out_features=4096, bias=False)
          (wv): Linear(in_features=4096, out_features=4096, bias=False)
          (wo): Linear(in_features=4096, out_features=4096, bias=True)
          (lora_wq_l1): Linear(in_features=4096, out_features=16, bias=False)
          (lora_wq_l2): Linear(in_features=16, out_features=4096, bias=False)
          (lora_wk_l1): Linear(in_features=4096, out_features=16, bias=False)
          (lora_wk_l2): Linear(in_features=16, out_features=4096, bias=False)
          (lora_wv_l1): Linear(in_features=4096, out_features=16, bias=False)
          (lora_wv_l2): Linear(in_features=16, out_features=4096, bias=False)
          (lora_wo_l1): Linear(in_features=4096, out_features=16, bias=False)
          (lora_wo_l2): Linear(in_features=16, out_features=4096, bias=False)
        )
        (feed_forward): FeedForward(
          (w1): Linear(in_features=4096, out_features=11008, bias=True)
          (w2): Linear(in_features=11008, out_features=4096, bias=True)
          (w3): Linear(in_features=4096, out_features=11008, bias=True)
          (lora_w1_l1): Linear(in_features=4096, out_features=16, bias=False)
          (lora_w1_l2): Linear(in_features=16, out_features=11008, bias=False)
          (lora_w2_l1): Linear(in_features=11008, out_features=16, bias=False)
          (lora_w2_l2): Linear(in_features=16, out_features=4096, bias=False)
          (lora_w3_l1): Linear(in_features=4096, out_features=16, bias=False)
          (lora_w3_l2): Linear(in_features=16, out_features=11008, bias=False)
        )
        (attention_norm): RMSNorm()
        (ffn_norm): RMSNorm()
      )
      (26): TransformerBlock(
        (attention): Attention(
          (wq): Linear(in_features=4096, out_features=4096, bias=True)
          (wk): Linear(in_features=4096, out_features=4096, bias=False)
          (wv): Linear(in_features=4096, out_features=4096, bias=False)
          (wo): Linear(in_features=4096, out_features=4096, bias=True)
          (lora_wq_l1): Linear(in_features=4096, out_features=16, bias=False)
          (lora_wq_l2): Linear(in_features=16, out_features=4096, bias=False)
          (lora_wk_l1): Linear(in_features=4096, out_features=16, bias=False)
          (lora_wk_l2): Linear(in_features=16, out_features=4096, bias=False)
          (lora_wv_l1): Linear(in_features=4096, out_features=16, bias=False)
          (lora_wv_l2): Linear(in_features=16, out_features=4096, bias=False)
          (lora_wo_l1): Linear(in_features=4096, out_features=16, bias=False)
          (lora_wo_l2): Linear(in_features=16, out_features=4096, bias=False)
        )
        (feed_forward): FeedForward(
          (w1): Linear(in_features=4096, out_features=11008, bias=True)
          (w2): Linear(in_features=11008, out_features=4096, bias=True)
          (w3): Linear(in_features=4096, out_features=11008, bias=True)
          (lora_w1_l1): Linear(in_features=4096, out_features=16, bias=False)
          (lora_w1_l2): Linear(in_features=16, out_features=11008, bias=False)
          (lora_w2_l1): Linear(in_features=11008, out_features=16, bias=False)
          (lora_w2_l2): Linear(in_features=16, out_features=4096, bias=False)
          (lora_w3_l1): Linear(in_features=4096, out_features=16, bias=False)
          (lora_w3_l2): Linear(in_features=16, out_features=11008, bias=False)
        )
        (attention_norm): RMSNorm()
        (ffn_norm): RMSNorm()
      )
      (27): TransformerBlock(
        (attention): Attention(
          (wq): Linear(in_features=4096, out_features=4096, bias=True)
          (wk): Linear(in_features=4096, out_features=4096, bias=False)
          (wv): Linear(in_features=4096, out_features=4096, bias=False)
          (wo): Linear(in_features=4096, out_features=4096, bias=True)
          (lora_wq_l1): Linear(in_features=4096, out_features=16, bias=False)
          (lora_wq_l2): Linear(in_features=16, out_features=4096, bias=False)
          (lora_wk_l1): Linear(in_features=4096, out_features=16, bias=False)
          (lora_wk_l2): Linear(in_features=16, out_features=4096, bias=False)
          (lora_wv_l1): Linear(in_features=4096, out_features=16, bias=False)
          (lora_wv_l2): Linear(in_features=16, out_features=4096, bias=False)
          (lora_wo_l1): Linear(in_features=4096, out_features=16, bias=False)
          (lora_wo_l2): Linear(in_features=16, out_features=4096, bias=False)
        )
        (feed_forward): FeedForward(
          (w1): Linear(in_features=4096, out_features=11008, bias=True)
          (w2): Linear(in_features=11008, out_features=4096, bias=True)
          (w3): Linear(in_features=4096, out_features=11008, bias=True)
          (lora_w1_l1): Linear(in_features=4096, out_features=16, bias=False)
          (lora_w1_l2): Linear(in_features=16, out_features=11008, bias=False)
          (lora_w2_l1): Linear(in_features=11008, out_features=16, bias=False)
          (lora_w2_l2): Linear(in_features=16, out_features=4096, bias=False)
          (lora_w3_l1): Linear(in_features=4096, out_features=16, bias=False)
          (lora_w3_l2): Linear(in_features=16, out_features=11008, bias=False)
        )
        (attention_norm): RMSNorm()
        (ffn_norm): RMSNorm()
      )
      (28): TransformerBlock(
        (attention): Attention(
          (wq): Linear(in_features=4096, out_features=4096, bias=True)
          (wk): Linear(in_features=4096, out_features=4096, bias=False)
          (wv): Linear(in_features=4096, out_features=4096, bias=False)
          (wo): Linear(in_features=4096, out_features=4096, bias=True)
          (lora_wq_l1): Linear(in_features=4096, out_features=16, bias=False)
          (lora_wq_l2): Linear(in_features=16, out_features=4096, bias=False)
          (lora_wk_l1): Linear(in_features=4096, out_features=16, bias=False)
          (lora_wk_l2): Linear(in_features=16, out_features=4096, bias=False)
          (lora_wv_l1): Linear(in_features=4096, out_features=16, bias=False)
          (lora_wv_l2): Linear(in_features=16, out_features=4096, bias=False)
          (lora_wo_l1): Linear(in_features=4096, out_features=16, bias=False)
          (lora_wo_l2): Linear(in_features=16, out_features=4096, bias=False)
        )
        (feed_forward): FeedForward(
          (w1): Linear(in_features=4096, out_features=11008, bias=True)
          (w2): Linear(in_features=11008, out_features=4096, bias=True)
          (w3): Linear(in_features=4096, out_features=11008, bias=True)
          (lora_w1_l1): Linear(in_features=4096, out_features=16, bias=False)
          (lora_w1_l2): Linear(in_features=16, out_features=11008, bias=False)
          (lora_w2_l1): Linear(in_features=11008, out_features=16, bias=False)
          (lora_w2_l2): Linear(in_features=16, out_features=4096, bias=False)
          (lora_w3_l1): Linear(in_features=4096, out_features=16, bias=False)
          (lora_w3_l2): Linear(in_features=16, out_features=11008, bias=False)
        )
        (attention_norm): RMSNorm()
        (ffn_norm): RMSNorm()
      )
      (29): TransformerBlock(
        (attention): Attention(
          (wq): Linear(in_features=4096, out_features=4096, bias=True)
          (wk): Linear(in_features=4096, out_features=4096, bias=False)
          (wv): Linear(in_features=4096, out_features=4096, bias=False)
          (wo): Linear(in_features=4096, out_features=4096, bias=True)
          (lora_wq_l1): Linear(in_features=4096, out_features=16, bias=False)
          (lora_wq_l2): Linear(in_features=16, out_features=4096, bias=False)
          (lora_wk_l1): Linear(in_features=4096, out_features=16, bias=False)
          (lora_wk_l2): Linear(in_features=16, out_features=4096, bias=False)
          (lora_wv_l1): Linear(in_features=4096, out_features=16, bias=False)
          (lora_wv_l2): Linear(in_features=16, out_features=4096, bias=False)
          (lora_wo_l1): Linear(in_features=4096, out_features=16, bias=False)
          (lora_wo_l2): Linear(in_features=16, out_features=4096, bias=False)
        )
        (feed_forward): FeedForward(
          (w1): Linear(in_features=4096, out_features=11008, bias=True)
          (w2): Linear(in_features=11008, out_features=4096, bias=True)
          (w3): Linear(in_features=4096, out_features=11008, bias=True)
          (lora_w1_l1): Linear(in_features=4096, out_features=16, bias=False)
          (lora_w1_l2): Linear(in_features=16, out_features=11008, bias=False)
          (lora_w2_l1): Linear(in_features=11008, out_features=16, bias=False)
          (lora_w2_l2): Linear(in_features=16, out_features=4096, bias=False)
          (lora_w3_l1): Linear(in_features=4096, out_features=16, bias=False)
          (lora_w3_l2): Linear(in_features=16, out_features=11008, bias=False)
        )
        (attention_norm): RMSNorm()
        (ffn_norm): RMSNorm()
      )
      (30): TransformerBlock(
        (attention): Attention(
          (wq): Linear(in_features=4096, out_features=4096, bias=True)
          (wk): Linear(in_features=4096, out_features=4096, bias=False)
          (wv): Linear(in_features=4096, out_features=4096, bias=False)
          (wo): Linear(in_features=4096, out_features=4096, bias=True)
          (lora_wq_l1): Linear(in_features=4096, out_features=16, bias=False)
          (lora_wq_l2): Linear(in_features=16, out_features=4096, bias=False)
          (lora_wk_l1): Linear(in_features=4096, out_features=16, bias=False)
          (lora_wk_l2): Linear(in_features=16, out_features=4096, bias=False)
          (lora_wv_l1): Linear(in_features=4096, out_features=16, bias=False)
          (lora_wv_l2): Linear(in_features=16, out_features=4096, bias=False)
          (lora_wo_l1): Linear(in_features=4096, out_features=16, bias=False)
          (lora_wo_l2): Linear(in_features=16, out_features=4096, bias=False)
        )
        (feed_forward): FeedForward(
          (w1): Linear(in_features=4096, out_features=11008, bias=True)
          (w2): Linear(in_features=11008, out_features=4096, bias=True)
          (w3): Linear(in_features=4096, out_features=11008, bias=True)
          (lora_w1_l1): Linear(in_features=4096, out_features=16, bias=False)
          (lora_w1_l2): Linear(in_features=16, out_features=11008, bias=False)
          (lora_w2_l1): Linear(in_features=11008, out_features=16, bias=False)
          (lora_w2_l2): Linear(in_features=16, out_features=4096, bias=False)
          (lora_w3_l1): Linear(in_features=4096, out_features=16, bias=False)
          (lora_w3_l2): Linear(in_features=16, out_features=11008, bias=False)
        )
        (attention_norm): RMSNorm()
        (ffn_norm): RMSNorm()
      )
      (31): TransformerBlock(
        (attention): Attention(
          (wq): Linear(in_features=4096, out_features=4096, bias=True)
          (wk): Linear(in_features=4096, out_features=4096, bias=False)
          (wv): Linear(in_features=4096, out_features=4096, bias=False)
          (wo): Linear(in_features=4096, out_features=4096, bias=True)
          (lora_wq_l1): Linear(in_features=4096, out_features=16, bias=False)
          (lora_wq_l2): Linear(in_features=16, out_features=4096, bias=False)
          (lora_wk_l1): Linear(in_features=4096, out_features=16, bias=False)
          (lora_wk_l2): Linear(in_features=16, out_features=4096, bias=False)
          (lora_wv_l1): Linear(in_features=4096, out_features=16, bias=False)
          (lora_wv_l2): Linear(in_features=16, out_features=4096, bias=False)
          (lora_wo_l1): Linear(in_features=4096, out_features=16, bias=False)
          (lora_wo_l2): Linear(in_features=16, out_features=4096, bias=False)
        )
        (feed_forward): FeedForward(
          (w1): Linear(in_features=4096, out_features=11008, bias=True)
          (w2): Linear(in_features=11008, out_features=4096, bias=True)
          (w3): Linear(in_features=4096, out_features=11008, bias=True)
          (lora_w1_l1): Linear(in_features=4096, out_features=16, bias=False)
          (lora_w1_l2): Linear(in_features=16, out_features=11008, bias=False)
          (lora_w2_l1): Linear(in_features=11008, out_features=16, bias=False)
          (lora_w2_l2): Linear(in_features=16, out_features=4096, bias=False)
          (lora_w3_l1): Linear(in_features=4096, out_features=16, bias=False)
          (lora_w3_l2): Linear(in_features=16, out_features=11008, bias=False)
        )
        (attention_norm): RMSNorm()
        (ffn_norm): RMSNorm()
      )
    )
    (norm): RMSNorm()
    (output): Linear(in_features=4096, out_features=32000, bias=False)
  )
  (prefix_query): Embedding(32, 4096)
  (criterion): CrossEntropyLoss()
)
[02:22:33.074001] Total Params: 6974.55 M
[02:22:33.076962] Trainable Params:: 255.44 M
[02:22:33.077029] whisper_encoder.conv1.weight torch.Size([1024, 80, 3]) False
[02:22:33.077086] whisper_encoder.conv1.bias torch.Size([1024]) False
[02:22:33.077135] whisper_encoder.conv2.weight torch.Size([1024, 1024, 3]) False
[02:22:33.077169] whisper_encoder.conv2.bias torch.Size([1024]) False
…
