…
dist_url='env://',
rank=0,
gpu=0,
distributed=True,
dist_backend='nccl')
[00:24:47.738452] model args: ModelArgs(dim=4096, n_layers=32, n_heads=32, vocab_size=-1, multiple_of=256, norm_eps=1e-06, max_batch_size=1, max_seq_len=512, w_bias=True, w_lora=True, lora_rank=16)
[00:25:10.664163] Model = LLaMA_adapter(
  (image_bind): ImageBindModel(
    (modality_preprocessors): ModuleDict(
      (vision): RGBDTPreprocessor(
        (cls_token): tensor((1, 1, 1280), requires_grad=False)
        
        (rgbt_stem): PatchEmbedGeneric(
          (proj): Sequential(
            (0): PadIm2Video()
            (1): Conv3d(3, 1280, kernel_size=(2, 14, 14), stride=(2, 14, 14), bias=False)
          )
        )
        (pos_embedding_helper): SpatioTemporalPosEmbeddingHelper(
          (pos_embed): tensor((1, 257, 1280), requires_grad=False)
          
        )
      )
      (text): TextPreprocessor(
        (pos_embed): tensor((1, 77, 1024), requires_grad=False)
        (mask): tensor((77, 77), requires_grad=False)
        
        (token_embedding): Embedding(49408, 1024)
      )
      (audio): AudioPreprocessor(
        (cls_token): tensor((1, 1, 768), requires_grad=False)
        
        (rgbt_stem): PatchEmbedGeneric(
          (proj): Conv2d(1, 768, kernel_size=(16, 16), stride=(10, 10), bias=False)
          (norm_layer): LayerNorm((768,), eps=1e-05, elementwise_affine=True)
        )
        (pos_embedding_helper): SpatioTemporalPosEmbeddingHelper(
          (pos_embed): tensor((1, 229, 768), requires_grad=False)
          
        )
      )
      (depth): RGBDTPreprocessor(
        (cls_token): tensor((1, 1, 384), requires_grad=False)
        
        (depth_stem): PatchEmbedGeneric(
          (proj): Conv2d(1, 384, kernel_size=(16, 16), stride=(16, 16), bias=False)
          (norm_layer): LayerNorm((384,), eps=1e-05, elementwise_affine=True)
        )
        (pos_embedding_helper): SpatioTemporalPosEmbeddingHelper(
          (pos_embed): tensor((1, 197, 384), requires_grad=False)
          
        )
      )
      (thermal): ThermalPreprocessor(
        (cls_token): tensor((1, 1, 768), requires_grad=False)
        
        (rgbt_stem): PatchEmbedGeneric(
          (proj): Conv2d(1, 768, kernel_size=(16, 16), stride=(16, 16), bias=False)
          (norm_layer): LayerNorm((768,), eps=1e-05, elementwise_affine=True)
        )
        (pos_embedding_helper): SpatioTemporalPosEmbeddingHelper(
          (pos_embed): tensor((1, 197, 768), requires_grad=False)
          
        )
      )
      (imu): IMUPreprocessor(
        (pos_embed): tensor((1, 251, 512), requires_grad=False)
        (cls_token): tensor((1, 1, 512), requires_grad=False)
        
        (imu_stem): PatchEmbedGeneric(
          (proj): Linear(in_features=48, out_features=512, bias=False)
          (norm_layer): LayerNorm((512,), eps=1e-05, elementwise_affine=True)
        )
      )
    )
    (modality_trunks): ModuleDict(
      (vision): SimpleTransformer(
        (pre_transformer_layer): Sequential(
          (0): LayerNorm((1280,), eps=1e-06, elementwise_affine=True)
          (1): EinOpsRearrange()
        )
        (blocks): Sequential(
          (0): BlockWithMasking(
            (attn): MultiheadAttention(
              (out_proj): NonDynamicallyQuantizableLinear(in_features=1280, out_features=1280, bias=True)
            )
            (drop_path): Identity()
            (norm_1): LayerNorm((1280,), eps=1e-06, elementwise_affine=True)
            (mlp): Mlp(
              (fc1): Linear(in_features=1280, out_features=5120, bias=True)
              (act): GELU(approximate='none')
              (fc2): Linear(in_features=5120, out_features=1280, bias=True)
              (drop): Dropout(p=0.0, inplace=False)
            )
            (norm_2): LayerNorm((1280,), eps=1e-06, elementwise_affine=True)
          )
          (1): BlockWithMasking(
            (attn): MultiheadAttention(
              (out_proj): NonDynamicallyQuantizableLinear(in_features=1280, out_features=1280, bias=True)
            )
            (drop_path): Identity()
            (norm_1): LayerNorm((1280,), eps=1e-06, elementwise_affine=True)
            (mlp): Mlp(
              (fc1): Linear(in_features=1280, out_features=5120, bias=True)
              (act): GELU(approximate='none')
              (fc2): Linear(in_features=5120, out_features=1280, bias=True)
              (drop): Dropout(p=0.0, inplace=False)
            )
            (norm_2): LayerNorm((1280,), eps=1e-06, elementwise_affine=True)
          )
          (2): BlockWithMasking(
            (attn): MultiheadAttention(
              (out_proj): NonDynamicallyQuantizableLinear(in_features=1280, out_features=1280, bias=True)
            )
            (drop_path): Identity()
            (norm_1): LayerNorm((1280,), eps=1e-06, elementwise_affine=True)
            (mlp): Mlp(
              (fc1): Linear(in_features=1280, out_features=5120, bias=True)
              (act): GELU(approximate='none')
              (fc2): Linear(in_features=5120, out_features=1280, bias=True)
              (drop): Dropout(p=0.0, inplace=False)
            )
            (norm_2): LayerNorm((1280,), eps=1e-06, elementwise_affine=True)
          )
          (3): BlockWithMasking(
            (attn): MultiheadAttention(
              (out_proj): NonDynamicallyQuantizableLinear(in_features=1280, out_features=1280, bias=True)
            )
            (drop_path): Identity()
            (norm_1): LayerNorm((1280,), eps=1e-06, elementwise_affine=True)
            (mlp): Mlp(
              (fc1): Linear(in_features=1280, out_features=5120, bias=True)
              (act): GELU(approximate='none')
              (fc2): Linear(in_features=5120, out_features=1280, bias=True)
              (drop): Dropout(p=0.0, inplace=False)
            )
            (norm_2): LayerNorm((1280,), eps=1e-06, elementwise_affine=True)
          )
          (4): BlockWithMasking(
            (attn): MultiheadAttention(
              (out_proj): NonDynamicallyQuantizableLinear(in_features=1280, out_features=1280, bias=True)
            )
            (drop_path): Identity()
            (norm_1): LayerNorm((1280,), eps=1e-06, elementwise_affine=True)
            (mlp): Mlp(
              (fc1): Linear(in_features=1280, out_features=5120, bias=True)
              (act): GELU(approximate='none')
              (fc2): Linear(in_features=5120, out_features=1280, bias=True)
              (drop): Dropout(p=0.0, inplace=False)
            )
            (norm_2): LayerNorm((1280,), eps=1e-06, elementwise_affine=True)
          )
          (5): BlockWithMasking(
            (attn): MultiheadAttention(
              (out_proj): NonDynamicallyQuantizableLinear(in_features=1280, out_features=1280, bias=True)
            )
            (drop_path): Identity()
            (norm_1): LayerNorm((1280,), eps=1e-06, elementwise_affine=True)
            (mlp): Mlp(
              (fc1): Linear(in_features=1280, out_features=5120, bias=True)
              (act): GELU(approximate='none')
              (fc2): Linear(in_features=5120, out_features=1280, bias=True)
              (drop): Dropout(p=0.0, inplace=False)
            )
            (norm_2): LayerNorm((1280,), eps=1e-06, elementwise_affine=True)
          )
          (6): BlockWithMasking(
            (attn): MultiheadAttention(
              (out_proj): NonDynamicallyQuantizableLinear(in_features=1280, out_features=1280, bias=True)
            )
            (drop_path): Identity()
            (norm_1): LayerNorm((1280,), eps=1e-06, elementwise_affine=True)
            (mlp): Mlp(
              (fc1): Linear(in_features=1280, out_features=5120, bias=True)
              (act): GELU(approximate='none')
              (fc2): Linear(in_features=5120, out_features=1280, bias=True)
              (drop): Dropout(p=0.0, inplace=False)
            )
            (norm_2): LayerNorm((1280,), eps=1e-06, elementwise_affine=True)
          )
          (7): BlockWithMasking(
            (attn): MultiheadAttention(
              (out_proj): NonDynamicallyQuantizableLinear(in_features=1280, out_features=1280, bias=True)
            )
            (drop_path): Identity()
            (norm_1): LayerNorm((1280,), eps=1e-06, elementwise_affine=True)
            (mlp): Mlp(
              (fc1): Linear(in_features=1280, out_features=5120, bias=True)
              (act): GELU(approximate='none')
              (fc2): Linear(in_features=5120, out_features=1280, bias=True)
              (drop): Dropout(p=0.0, inplace=False)
            )
            (norm_2): LayerNorm((1280,), eps=1e-06, elementwise_affine=True)
          )
          (8): BlockWithMasking(
            (attn): MultiheadAttention(
              (out_proj): NonDynamicallyQuantizableLinear(in_features=1280, out_features=1280, bias=True)
            )
            (drop_path): Identity()
            (norm_1): LayerNorm((1280,), eps=1e-06, elementwise_affine=True)
            (mlp): Mlp(
              (fc1): Linear(in_features=1280, out_features=5120, bias=True)
              (act): GELU(approximate='none')
              (fc2): Linear(in_features=5120, out_features=1280, bias=True)
              (drop): Dropout(p=0.0, inplace=False)
            )
            (norm_2): LayerNorm((1280,), eps=1e-06, elementwise_affine=True)
          )
          (9): BlockWithMasking(
            (attn): MultiheadAttention(
              (out_proj): NonDynamicallyQuantizableLinear(in_features=1280, out_features=1280, bias=True)
            )
            (drop_path): Identity()
            (norm_1): LayerNorm((1280,), eps=1e-06, elementwise_affine=True)
            (mlp): Mlp(
              (fc1): Linear(in_features=1280, out_features=5120, bias=True)
              (act): GELU(approximate='none')
              (fc2): Linear(in_features=5120, out_features=1280, bias=True)
              (drop): Dropout(p=0.0, inplace=False)
            )
            (norm_2): LayerNorm((1280,), eps=1e-06, elementwise_affine=True)
          )
          (10): BlockWithMasking(
            (attn): MultiheadAttention(
              (out_proj): NonDynamicallyQuantizableLinear(in_features=1280, out_features=1280, bias=True)
            )
            (drop_path): Identity()
            (norm_1): LayerNorm((1280,), eps=1e-06, elementwise_affine=True)
            (mlp): Mlp(
              (fc1): Linear(in_features=1280, out_features=5120, bias=True)
              (act): GELU(approximate='none')
              (fc2): Linear(in_features=5120, out_features=1280, bias=True)
              (drop): Dropout(p=0.0, inplace=False)
            )
            (norm_2): LayerNorm((1280,), eps=1e-06, elementwise_affine=True)
          )
          (11): BlockWithMasking(
            (attn): MultiheadAttention(
              (out_proj): NonDynamicallyQuantizableLinear(in_features=1280, out_features=1280, bias=True)
            )
            (drop_path): Identity()
            (norm_1): LayerNorm((1280,), eps=1e-06, elementwise_affine=True)
            (mlp): Mlp(
              (fc1): Linear(in_features=1280, out_features=5120, bias=True)
              (act): GELU(approximate='none')
              (fc2): Linear(in_features=5120, out_features=1280, bias=True)
              (drop): Dropout(p=0.0, inplace=False)
            )
            (norm_2): LayerNorm((1280,), eps=1e-06, elementwise_affine=True)
          )
          (12): BlockWithMasking(
            (attn): MultiheadAttention(
              (out_proj): NonDynamicallyQuantizableLinear(in_features=1280, out_features=1280, bias=True)
            )
            (drop_path): Identity()
            (norm_1): LayerNorm((1280,), eps=1e-06, elementwise_affine=True)
            (mlp): Mlp(
              (fc1): Linear(in_features=1280, out_features=5120, bias=True)
              (act): GELU(approximate='none')
              (fc2): Linear(in_features=5120, out_features=1280, bias=True)
              (drop): Dropout(p=0.0, inplace=False)
            )
            (norm_2): LayerNorm((1280,), eps=1e-06, elementwise_affine=True)
          )
          (13): BlockWithMasking(
            (attn): MultiheadAttention(
              (out_proj): NonDynamicallyQuantizableLinear(in_features=1280, out_features=1280, bias=True)
            )
            (drop_path): Identity()
            (norm_1): LayerNorm((1280,), eps=1e-06, elementwise_affine=True)
            (mlp): Mlp(
              (fc1): Linear(in_features=1280, out_features=5120, bias=True)
              (act): GELU(approximate='none')
              (fc2): Linear(in_features=5120, out_features=1280, bias=True)
              (drop): Dropout(p=0.0, inplace=False)
            )
            (norm_2): LayerNorm((1280,), eps=1e-06, elementwise_affine=True)
          )
          (14): BlockWithMasking(
            (attn): MultiheadAttention(
              (out_proj): NonDynamicallyQuantizableLinear(in_features=1280, out_features=1280, bias=True)
            )
            (drop_path): Identity()
            (norm_1): LayerNorm((1280,), eps=1e-06, elementwise_affine=True)
            (mlp): Mlp(
              (fc1): Linear(in_features=1280, out_features=5120, bias=True)
              (act): GELU(approximate='none')
              (fc2): Linear(in_features=5120, out_features=1280, bias=True)
              (drop): Dropout(p=0.0, inplace=False)
            )
            (norm_2): LayerNorm((1280,), eps=1e-06, elementwise_affine=True)
          )
          (15): BlockWithMasking(
            (attn): MultiheadAttention(
              (out_proj): NonDynamicallyQuantizableLinear(in_features=1280, out_features=1280, bias=True)
            )
            (drop_path): Identity()
            (norm_1): LayerNorm((1280,), eps=1e-06, elementwise_affine=True)
            (mlp): Mlp(
              (fc1): Linear(in_features=1280, out_features=5120, bias=True)
              (act): GELU(approximate='none')
              (fc2): Linear(in_features=5120, out_features=1280, bias=True)
              (drop): Dropout(p=0.0, inplace=False)
            )
            (norm_2): LayerNorm((1280,), eps=1e-06, elementwise_affine=True)
          )
          (16): BlockWithMasking(
            (attn): MultiheadAttention(
              (out_proj): NonDynamicallyQuantizableLinear(in_features=1280, out_features=1280, bias=True)
            )
            (drop_path): Identity()
            (norm_1): LayerNorm((1280,), eps=1e-06, elementwise_affine=True)
            (mlp): Mlp(
              (fc1): Linear(in_features=1280, out_features=5120, bias=True)
              (act): GELU(approximate='none')
              (fc2): Linear(in_features=5120, out_features=1280, bias=True)
              (drop): Dropout(p=0.0, inplace=False)
            )
            (norm_2): LayerNorm((1280,), eps=1e-06, elementwise_affine=True)
          )
          (17): BlockWithMasking(
            (attn): MultiheadAttention(
              (out_proj): NonDynamicallyQuantizableLinear(in_features=1280, out_features=1280, bias=True)
            )
            (drop_path): Identity()
            (norm_1): LayerNorm((1280,), eps=1e-06, elementwise_affine=True)
            (mlp): Mlp(
              (fc1): Linear(in_features=1280, out_features=5120, bias=True)
              (act): GELU(approximate='none')
              (fc2): Linear(in_features=5120, out_features=1280, bias=True)
              (drop): Dropout(p=0.0, inplace=False)
            )
            (norm_2): LayerNorm((1280,), eps=1e-06, elementwise_affine=True)
          )
          (18): BlockWithMasking(
            (attn): MultiheadAttention(
              (out_proj): NonDynamicallyQuantizableLinear(in_features=1280, out_features=1280, bias=True)
            )
            (drop_path): Identity()
            (norm_1): LayerNorm((1280,), eps=1e-06, elementwise_affine=True)
            (mlp): Mlp(
              (fc1): Linear(in_features=1280, out_features=5120, bias=True)
              (act): GELU(approximate='none')
              (fc2): Linear(in_features=5120, out_features=1280, bias=True)
              (drop): Dropout(p=0.0, inplace=False)
            )
            (norm_2): LayerNorm((1280,), eps=1e-06, elementwise_affine=True)
          )
          (19): BlockWithMasking(
            (attn): MultiheadAttention(
              (out_proj): NonDynamicallyQuantizableLinear(in_features=1280, out_features=1280, bias=True)
            )
            (drop_path): Identity()
            (norm_1): LayerNorm((1280,), eps=1e-06, elementwise_affine=True)
            (mlp): Mlp(
              (fc1): Linear(in_features=1280, out_features=5120, bias=True)
              (act): GELU(approximate='none')
              (fc2): Linear(in_features=5120, out_features=1280, bias=True)
              (drop): Dropout(p=0.0, inplace=False)
            )
            (norm_2): LayerNorm((1280,), eps=1e-06, elementwise_affine=True)
          )
          (20): BlockWithMasking(
            (attn): MultiheadAttention(
              (out_proj): NonDynamicallyQuantizableLinear(in_features=1280, out_features=1280, bias=True)
            )
            (drop_path): Identity()
            (norm_1): LayerNorm((1280,), eps=1e-06, elementwise_affine=True)
            (mlp): Mlp(
              (fc1): Linear(in_features=1280, out_features=5120, bias=True)
              (act): GELU(approximate='none')
              (fc2): Linear(in_features=5120, out_features=1280, bias=True)
              (drop): Dropout(p=0.0, inplace=False)
            )
            (norm_2): LayerNorm((1280,), eps=1e-06, elementwise_affine=True)
          )
          (21): BlockWithMasking(
            (attn): MultiheadAttention(
              (out_proj): NonDynamicallyQuantizableLinear(in_features=1280, out_features=1280, bias=True)
            )
            (drop_path): Identity()
            (norm_1): LayerNorm((1280,), eps=1e-06, elementwise_affine=True)
            (mlp): Mlp(
              (fc1): Linear(in_features=1280, out_features=5120, bias=True)
              (act): GELU(approximate='none')
              (fc2): Linear(in_features=5120, out_features=1280, bias=True)
              (drop): Dropout(p=0.0, inplace=False)
            )
            (norm_2): LayerNorm((1280,), eps=1e-06, elementwise_affine=True)
          )
          (22): BlockWithMasking(
            (attn): MultiheadAttention(
              (out_proj): NonDynamicallyQuantizableLinear(in_features=1280, out_features=1280, bias=True)
            )
            (drop_path): Identity()
            (norm_1): LayerNorm((1280,), eps=1e-06, elementwise_affine=True)
            (mlp): Mlp(
              (fc1): Linear(in_features=1280, out_features=5120, bias=True)
              (act): GELU(approximate='none')
              (fc2): Linear(in_features=5120, out_features=1280, bias=True)
              (drop): Dropout(p=0.0, inplace=False)
            )
            (norm_2): LayerNorm((1280,), eps=1e-06, elementwise_affine=True)
          )
          (23): BlockWithMasking(
            (attn): MultiheadAttention(
              (out_proj): NonDynamicallyQuantizableLinear(in_features=1280, out_features=1280, bias=True)
            )
            (drop_path): Identity()
            (norm_1): LayerNorm((1280,), eps=1e-06, elementwise_affine=True)
            (mlp): Mlp(
              (fc1): Linear(in_features=1280, out_features=5120, bias=True)
              (act): GELU(approximate='none')
              (fc2): Linear(in_features=5120, out_features=1280, bias=True)
              (drop): Dropout(p=0.0, inplace=False)
            )
            (norm_2): LayerNorm((1280,), eps=1e-06, elementwise_affine=True)
          )
          (24): BlockWithMasking(
            (attn): MultiheadAttention(
              (out_proj): NonDynamicallyQuantizableLinear(in_features=1280, out_features=1280, bias=True)
            )
            (drop_path): Identity()
            (norm_1): LayerNorm((1280,), eps=1e-06, elementwise_affine=True)
            (mlp): Mlp(
              (fc1): Linear(in_features=1280, out_features=5120, bias=True)
              (act): GELU(approximate='none')
              (fc2): Linear(in_features=5120, out_features=1280, bias=True)
              (drop): Dropout(p=0.0, inplace=False)
            )
            (norm_2): LayerNorm((1280,), eps=1e-06, elementwise_affine=True)
          )
          (25): BlockWithMasking(
            (attn): MultiheadAttention(
              (out_proj): NonDynamicallyQuantizableLinear(in_features=1280, out_features=1280, bias=True)
            )
            (drop_path): Identity()
            (norm_1): LayerNorm((1280,), eps=1e-06, elementwise_affine=True)
            (mlp): Mlp(
              (fc1): Linear(in_features=1280, out_features=5120, bias=True)
              (act): GELU(approximate='none')
              (fc2): Linear(in_features=5120, out_features=1280, bias=True)
              (drop): Dropout(p=0.0, inplace=False)
            )
            (norm_2): LayerNorm((1280,), eps=1e-06, elementwise_affine=True)
          )
          (26): BlockWithMasking(
            (attn): MultiheadAttention(
              (out_proj): NonDynamicallyQuantizableLinear(in_features=1280, out_features=1280, bias=True)
            )
            (drop_path): Identity()
            (norm_1): LayerNorm((1280,), eps=1e-06, elementwise_affine=True)
            (mlp): Mlp(
              (fc1): Linear(in_features=1280, out_features=5120, bias=True)
              (act): GELU(approximate='none')
              (fc2): Linear(in_features=5120, out_features=1280, bias=True)
              (drop): Dropout(p=0.0, inplace=False)
            )
            (norm_2): LayerNorm((1280,), eps=1e-06, elementwise_affine=True)
          )
          (27): BlockWithMasking(
            (attn): MultiheadAttention(
              (out_proj): NonDynamicallyQuantizableLinear(in_features=1280, out_features=1280, bias=True)
            )
            (drop_path): Identity()
            (norm_1): LayerNorm((1280,), eps=1e-06, elementwise_affine=True)
            (mlp): Mlp(
              (fc1): Linear(in_features=1280, out_features=5120, bias=True)
              (act): GELU(approximate='none')
              (fc2): Linear(in_features=5120, out_features=1280, bias=True)
              (drop): Dropout(p=0.0, inplace=False)
            )
            (norm_2): LayerNorm((1280,), eps=1e-06, elementwise_affine=True)
          )
          (28): BlockWithMasking(
            (attn): MultiheadAttention(
              (out_proj): NonDynamicallyQuantizableLinear(in_features=1280, out_features=1280, bias=True)
            )
            (drop_path): Identity()
            (norm_1): LayerNorm((1280,), eps=1e-06, elementwise_affine=True)
            (mlp): Mlp(
              (fc1): Linear(in_features=1280, out_features=5120, bias=True)
              (act): GELU(approximate='none')
              (fc2): Linear(in_features=5120, out_features=1280, bias=True)
              (drop): Dropout(p=0.0, inplace=False)
            )
            (norm_2): LayerNorm((1280,), eps=1e-06, elementwise_affine=True)
          )
          (29): BlockWithMasking(
            (attn): MultiheadAttention(
              (out_proj): NonDynamicallyQuantizableLinear(in_features=1280, out_features=1280, bias=True)
            )
            (drop_path): Identity()
            (norm_1): LayerNorm((1280,), eps=1e-06, elementwise_affine=True)
            (mlp): Mlp(
              (fc1): Linear(in_features=1280, out_features=5120, bias=True)
              (act): GELU(approximate='none')
              (fc2): Linear(in_features=5120, out_features=1280, bias=True)
              (drop): Dropout(p=0.0, inplace=False)
            )
            (norm_2): LayerNorm((1280,), eps=1e-06, elementwise_affine=True)
          )
          (30): BlockWithMasking(
            (attn): MultiheadAttention(
              (out_proj): NonDynamicallyQuantizableLinear(in_features=1280, out_features=1280, bias=True)
            )
            (drop_path): Identity()
            (norm_1): LayerNorm((1280,), eps=1e-06, elementwise_affine=True)
            (mlp): Mlp(
              (fc1): Linear(in_features=1280, out_features=5120, bias=True)
              (act): GELU(approximate='none')
              (fc2): Linear(in_features=5120, out_features=1280, bias=True)
              (drop): Dropout(p=0.0, inplace=False)
            )
            (norm_2): LayerNorm((1280,), eps=1e-06, elementwise_affine=True)
          )
          (31): BlockWithMasking(
            (attn): MultiheadAttention(
              (out_proj): NonDynamicallyQuantizableLinear(in_features=1280, out_features=1280, bias=True)
            )
            (drop_path): Identity()
            (norm_1): LayerNorm((1280,), eps=1e-06, elementwise_affine=True)
            (mlp): Mlp(
              (fc1): Linear(in_features=1280, out_features=5120, bias=True)
              (act): GELU(approximate='none')
              (fc2): Linear(in_features=5120, out_features=1280, bias=True)
              (drop): Dropout(p=0.0, inplace=False)
            )
            (norm_2): LayerNorm((1280,), eps=1e-06, elementwise_affine=True)
          )
        )
        (post_transformer_layer): EinOpsRearrange()
      )
      (text): SimpleTransformer(
        (pre_transformer_layer): Sequential(
          (0): Identity()
          (1): EinOpsRearrange()
        )
        (blocks): Sequential(
          (0): BlockWithMasking(
            (attn): MultiheadAttention(
              (out_proj): NonDynamicallyQuantizableLinear(in_features=1024, out_features=1024, bias=True)
            )
            (drop_path): Identity()
            (norm_1): LayerNorm((1024,), eps=1e-06, elementwise_affine=True)
            (mlp): Mlp(
              (fc1): Linear(in_features=1024, out_features=4096, bias=True)
              (act): GELU(approximate='none')
              (fc2): Linear(in_features=4096, out_features=1024, bias=True)
              (drop): Dropout(p=0.0, inplace=False)
            )
            (norm_2): LayerNorm((1024,), eps=1e-06, elementwise_affine=True)
          )
          (1): BlockWithMasking(
            (attn): MultiheadAttention(
              (out_proj): NonDynamicallyQuantizableLinear(in_features=1024, out_features=1024, bias=True)
            )
            (drop_path): Identity()
            (norm_1): LayerNorm((1024,), eps=1e-06, elementwise_affine=True)
            (mlp): Mlp(
              (fc1): Linear(in_features=1024, out_features=4096, bias=True)
              (act): GELU(approximate='none')
              (fc2): Linear(in_features=4096, out_features=1024, bias=True)
              (drop): Dropout(p=0.0, inplace=False)
            )
            (norm_2): LayerNorm((1024,), eps=1e-06, elementwise_affine=True)
          )
          (2): BlockWithMasking(
            (attn): MultiheadAttention(
              (out_proj): NonDynamicallyQuantizableLinear(in_features=1024, out_features=1024, bias=True)
            )
            (drop_path): Identity()
            (norm_1): LayerNorm((1024,), eps=1e-06, elementwise_affine=True)
            (mlp): Mlp(
              (fc1): Linear(in_features=1024, out_features=4096, bias=True)
              (act): GELU(approximate='none')
              (fc2): Linear(in_features=4096, out_features=1024, bias=True)
              (drop): Dropout(p=0.0, inplace=False)
            )
            (norm_2): LayerNorm((1024,), eps=1e-06, elementwise_affine=True)
          )
          (3): BlockWithMasking(
            (attn): MultiheadAttention(
              (out_proj): NonDynamicallyQuantizableLinear(in_features=1024, out_features=1024, bias=True)
            )
            (drop_path): Identity()
            (norm_1): LayerNorm((1024,), eps=1e-06, elementwise_affine=True)
            (mlp): Mlp(
              (fc1): Linear(in_features=1024, out_features=4096, bias=True)
              (act): GELU(approximate='none')
              (fc2): Linear(in_features=4096, out_features=1024, bias=True)
              (drop): Dropout(p=0.0, inplace=False)
            )
            (norm_2): LayerNorm((1024,), eps=1e-06, elementwise_affine=True)
          )
          (4): BlockWithMasking(
            (attn): MultiheadAttention(
              (out_proj): NonDynamicallyQuantizableLinear(in_features=1024, out_features=1024, bias=True)
            )
            (drop_path): Identity()
            (norm_1): LayerNorm((1024,), eps=1e-06, elementwise_affine=True)
            (mlp): Mlp(
              (fc1): Linear(in_features=1024, out_features=4096, bias=True)
              (act): GELU(approximate='none')
              (fc2): Linear(in_features=4096, out_features=1024, bias=True)
              (drop): Dropout(p=0.0, inplace=False)
            )
            (norm_2): LayerNorm((1024,), eps=1e-06, elementwise_affine=True)
          )
          (5): BlockWithMasking(
            (attn): MultiheadAttention(
              (out_proj): NonDynamicallyQuantizableLinear(in_features=1024, out_features=1024, bias=True)
            )
            (drop_path): Identity()
            (norm_1): LayerNorm((1024,), eps=1e-06, elementwise_affine=True)
            (mlp): Mlp(
              (fc1): Linear(in_features=1024, out_features=4096, bias=True)
              (act): GELU(approximate='none')
              (fc2): Linear(in_features=4096, out_features=1024, bias=True)
              (drop): Dropout(p=0.0, inplace=False)
            )
            (norm_2): LayerNorm((1024,), eps=1e-06, elementwise_affine=True)
          )
          (6): BlockWithMasking(
            (attn): MultiheadAttention(
              (out_proj): NonDynamicallyQuantizableLinear(in_features=1024, out_features=1024, bias=True)
            )
            (drop_path): Identity()
            (norm_1): LayerNorm((1024,), eps=1e-06, elementwise_affine=True)
            (mlp): Mlp(
              (fc1): Linear(in_features=1024, out_features=4096, bias=True)
              (act): GELU(approximate='none')
              (fc2): Linear(in_features=4096, out_features=1024, bias=True)
              (drop): Dropout(p=0.0, inplace=False)
            )
            (norm_2): LayerNorm((1024,), eps=1e-06, elementwise_affine=True)
          )
          (7): BlockWithMasking(
            (attn): MultiheadAttention(
              (out_proj): NonDynamicallyQuantizableLinear(in_features=1024, out_features=1024, bias=True)
            )
            (drop_path): Identity()
            (norm_1): LayerNorm((1024,), eps=1e-06, elementwise_affine=True)
            (mlp): Mlp(
              (fc1): Linear(in_features=1024, out_features=4096, bias=True)
              (act): GELU(approximate='none')
              (fc2): Linear(in_features=4096, out_features=1024, bias=True)
              (drop): Dropout(p=0.0, inplace=False)
            )
            (norm_2): LayerNorm((1024,), eps=1e-06, elementwise_affine=True)
          )
          (8): BlockWithMasking(
            (attn): MultiheadAttention(
              (out_proj): NonDynamicallyQuantizableLinear(in_features=1024, out_features=1024, bias=True)
            )
            (drop_path): Identity()
            (norm_1): LayerNorm((1024,), eps=1e-06, elementwise_affine=True)
            (mlp): Mlp(
              (fc1): Linear(in_features=1024, out_features=4096, bias=True)
              (act): GELU(approximate='none')
              (fc2): Linear(in_features=4096, out_features=1024, bias=True)
              (drop): Dropout(p=0.0, inplace=False)
            )
            (norm_2): LayerNorm((1024,), eps=1e-06, elementwise_affine=True)
          )
          (9): BlockWithMasking(
            (attn): MultiheadAttention(
              (out_proj): NonDynamicallyQuantizableLinear(in_features=1024, out_features=1024, bias=True)
            )
            (drop_path): Identity()
            (norm_1): LayerNorm((1024,), eps=1e-06, elementwise_affine=True)
            (mlp): Mlp(
              (fc1): Linear(in_features=1024, out_features=4096, bias=True)
              (act): GELU(approximate='none')
              (fc2): Linear(in_features=4096, out_features=1024, bias=True)
              (drop): Dropout(p=0.0, inplace=False)
            )
            (norm_2): LayerNorm((1024,), eps=1e-06, elementwise_affine=True)
          )
          (10): BlockWithMasking(
            (attn): MultiheadAttention(
              (out_proj): NonDynamicallyQuantizableLinear(in_features=1024, out_features=1024, bias=True)
            )
            (drop_path): Identity()
            (norm_1): LayerNorm((1024,), eps=1e-06, elementwise_affine=True)
            (mlp): Mlp(
              (fc1): Linear(in_features=1024, out_features=4096, bias=True)
              (act): GELU(approximate='none')
              (fc2): Linear(in_features=4096, out_features=1024, bias=True)
              (drop): Dropout(p=0.0, inplace=False)
            )
            (norm_2): LayerNorm((1024,), eps=1e-06, elementwise_affine=True)
          )
          (11): BlockWithMasking(
            (attn): MultiheadAttention(
              (out_proj): NonDynamicallyQuantizableLinear(in_features=1024, out_features=1024, bias=True)
            )
            (drop_path): Identity()
            (norm_1): LayerNorm((1024,), eps=1e-06, elementwise_affine=True)
            (mlp): Mlp(
              (fc1): Linear(in_features=1024, out_features=4096, bias=True)
              (act): GELU(approximate='none')
              (fc2): Linear(in_features=4096, out_features=1024, bias=True)
              (drop): Dropout(p=0.0, inplace=False)
            )
            (norm_2): LayerNorm((1024,), eps=1e-06, elementwise_affine=True)
          )
          (12): BlockWithMasking(
            (attn): MultiheadAttention(
              (out_proj): NonDynamicallyQuantizableLinear(in_features=1024, out_features=1024, bias=True)
            )
            (drop_path): Identity()
            (norm_1): LayerNorm((1024,), eps=1e-06, elementwise_affine=True)
            (mlp): Mlp(
              (fc1): Linear(in_features=1024, out_features=4096, bias=True)
              (act): GELU(approximate='none')
              (fc2): Linear(in_features=4096, out_features=1024, bias=True)
              (drop): Dropout(p=0.0, inplace=False)
            )
            (norm_2): LayerNorm((1024,), eps=1e-06, elementwise_affine=True)
          )
          (13): BlockWithMasking(
            (attn): MultiheadAttention(
              (out_proj): NonDynamicallyQuantizableLinear(in_features=1024, out_features=1024, bias=True)
            )
            (drop_path): Identity()
            (norm_1): LayerNorm((1024,), eps=1e-06, elementwise_affine=True)
            (mlp): Mlp(
              (fc1): Linear(in_features=1024, out_features=4096, bias=True)
              (act): GELU(approximate='none')
              (fc2): Linear(in_features=4096, out_features=1024, bias=True)
              (drop): Dropout(p=0.0, inplace=False)
            )
            (norm_2): LayerNorm((1024,), eps=1e-06, elementwise_affine=True)
          )
          (14): BlockWithMasking(
            (attn): MultiheadAttention(
              (out_proj): NonDynamicallyQuantizableLinear(in_features=1024, out_features=1024, bias=True)
            )
            (drop_path): Identity()
            (norm_1): LayerNorm((1024,), eps=1e-06, elementwise_affine=True)
            (mlp): Mlp(
              (fc1): Linear(in_features=1024, out_features=4096, bias=True)
              (act): GELU(approximate='none')
              (fc2): Linear(in_features=4096, out_features=1024, bias=True)
              (drop): Dropout(p=0.0, inplace=False)
            )
            (norm_2): LayerNorm((1024,), eps=1e-06, elementwise_affine=True)
          )
          (15): BlockWithMasking(
            (attn): MultiheadAttention(
              (out_proj): NonDynamicallyQuantizableLinear(in_features=1024, out_features=1024, bias=True)
            )
            (drop_path): Identity()
            (norm_1): LayerNorm((1024,), eps=1e-06, elementwise_affine=True)
            (mlp): Mlp(
              (fc1): Linear(in_features=1024, out_features=4096, bias=True)
              (act): GELU(approximate='none')
              (fc2): Linear(in_features=4096, out_features=1024, bias=True)
              (drop): Dropout(p=0.0, inplace=False)
            )
            (norm_2): LayerNorm((1024,), eps=1e-06, elementwise_affine=True)
          )
          (16): BlockWithMasking(
            (attn): MultiheadAttention(
              (out_proj): NonDynamicallyQuantizableLinear(in_features=1024, out_features=1024, bias=True)
            )
            (drop_path): Identity()
            (norm_1): LayerNorm((1024,), eps=1e-06, elementwise_affine=True)
            (mlp): Mlp(
              (fc1): Linear(in_features=1024, out_features=4096, bias=True)
              (act): GELU(approximate='none')
              (fc2): Linear(in_features=4096, out_features=1024, bias=True)
              (drop): Dropout(p=0.0, inplace=False)
            )
            (norm_2): LayerNorm((1024,), eps=1e-06, elementwise_affine=True)
          )
          (17): BlockWithMasking(
            (attn): MultiheadAttention(
              (out_proj): NonDynamicallyQuantizableLinear(in_features=1024, out_features=1024, bias=True)
            )
            (drop_path): Identity()
            (norm_1): LayerNorm((1024,), eps=1e-06, elementwise_affine=True)
            (mlp): Mlp(
              (fc1): Linear(in_features=1024, out_features=4096, bias=True)
              (act): GELU(approximate='none')
              (fc2): Linear(in_features=4096, out_features=1024, bias=True)
              (drop): Dropout(p=0.0, inplace=False)
            )
            (norm_2): LayerNorm((1024,), eps=1e-06, elementwise_affine=True)
          )
          (18): BlockWithMasking(
            (attn): MultiheadAttention(
              (out_proj): NonDynamicallyQuantizableLinear(in_features=1024, out_features=1024, bias=True)
            )
            (drop_path): Identity()
            (norm_1): LayerNorm((1024,), eps=1e-06, elementwise_affine=True)
            (mlp): Mlp(
              (fc1): Linear(in_features=1024, out_features=4096, bias=True)
              (act): GELU(approximate='none')
              (fc2): Linear(in_features=4096, out_features=1024, bias=True)
              (drop): Dropout(p=0.0, inplace=False)
            )
            (norm_2): LayerNorm((1024,), eps=1e-06, elementwise_affine=True)
          )
          (19): BlockWithMasking(
            (attn): MultiheadAttention(
              (out_proj): NonDynamicallyQuantizableLinear(in_features=1024, out_features=1024, bias=True)
            )
            (drop_path): Identity()
            (norm_1): LayerNorm((1024,), eps=1e-06, elementwise_affine=True)
            (mlp): Mlp(
              (fc1): Linear(in_features=1024, out_features=4096, bias=True)
              (act): GELU(approximate='none')
              (fc2): Linear(in_features=4096, out_features=1024, bias=True)
              (drop): Dropout(p=0.0, inplace=False)
            )
            (norm_2): LayerNorm((1024,), eps=1e-06, elementwise_affine=True)
          )
          (20): BlockWithMasking(
            (attn): MultiheadAttention(
              (out_proj): NonDynamicallyQuantizableLinear(in_features=1024, out_features=1024, bias=True)
            )
            (drop_path): Identity()
            (norm_1): LayerNorm((1024,), eps=1e-06, elementwise_affine=True)
            (mlp): Mlp(
              (fc1): Linear(in_features=1024, out_features=4096, bias=True)
              (act): GELU(approximate='none')
              (fc2): Linear(in_features=4096, out_features=1024, bias=True)
              (drop): Dropout(p=0.0, inplace=False)
            )
            (norm_2): LayerNorm((1024,), eps=1e-06, elementwise_affine=True)
          )
          (21): BlockWithMasking(
            (attn): MultiheadAttention(
              (out_proj): NonDynamicallyQuantizableLinear(in_features=1024, out_features=1024, bias=True)
            )
            (drop_path): Identity()
            (norm_1): LayerNorm((1024,), eps=1e-06, elementwise_affine=True)
            (mlp): Mlp(
              (fc1): Linear(in_features=1024, out_features=4096, bias=True)
              (act): GELU(approximate='none')
              (fc2): Linear(in_features=4096, out_features=1024, bias=True)
              (drop): Dropout(p=0.0, inplace=False)
            )
            (norm_2): LayerNorm((1024,), eps=1e-06, elementwise_affine=True)
          )
          (22): BlockWithMasking(
            (attn): MultiheadAttention(
              (out_proj): NonDynamicallyQuantizableLinear(in_features=1024, out_features=1024, bias=True)
            )
            (drop_path): Identity()
            (norm_1): LayerNorm((1024,), eps=1e-06, elementwise_affine=True)
            (mlp): Mlp(
              (fc1): Linear(in_features=1024, out_features=4096, bias=True)
              (act): GELU(approximate='none')
              (fc2): Linear(in_features=4096, out_features=1024, bias=True)
              (drop): Dropout(p=0.0, inplace=False)
            )
            (norm_2): LayerNorm((1024,), eps=1e-06, elementwise_affine=True)
          )
          (23): BlockWithMasking(
            (attn): MultiheadAttention(
              (out_proj): NonDynamicallyQuantizableLinear(in_features=1024, out_features=1024, bias=True)
            )
            (drop_path): Identity()
            (norm_1): LayerNorm((1024,), eps=1e-06, elementwise_affine=True)
            (mlp): Mlp(
              (fc1): Linear(in_features=1024, out_features=4096, bias=True)
              (act): GELU(approximate='none')
              (fc2): Linear(in_features=4096, out_features=1024, bias=True)
              (drop): Dropout(p=0.0, inplace=False)
            )
            (norm_2): LayerNorm((1024,), eps=1e-06, elementwise_affine=True)
          )
        )
        (post_transformer_layer): EinOpsRearrange()
      )
      (audio): SimpleTransformer(
        (pre_transformer_layer): Sequential(
          (0): Identity()
          (1): EinOpsRearrange()
        )
        (blocks): Sequential(
          (0): BlockWithMasking(
            (attn): MultiheadAttention(
              (out_proj): NonDynamicallyQuantizableLinear(in_features=768, out_features=768, bias=True)
            )
            (drop_path): Identity()
            (norm_1): LayerNorm((768,), eps=1e-06, elementwise_affine=True)
            (mlp): Mlp(
              (fc1): Linear(in_features=768, out_features=3072, bias=True)
              (act): GELU(approximate='none')
              (fc2): Linear(in_features=3072, out_features=768, bias=True)
              (drop): Dropout(p=0.0, inplace=False)
            )
            (norm_2): LayerNorm((768,), eps=1e-06, elementwise_affine=True)
          )
          (1): BlockWithMasking(
            (attn): MultiheadAttention(
              (out_proj): NonDynamicallyQuantizableLinear(in_features=768, out_features=768, bias=True)
            )
            (drop_path): DropPath(drop_prob=0.009)
            (norm_1): LayerNorm((768,), eps=1e-06, elementwise_affine=True)
            (mlp): Mlp(
              (fc1): Linear(in_features=768, out_features=3072, bias=True)
              (act): GELU(approximate='none')
              (fc2): Linear(in_features=3072, out_features=768, bias=True)
              (drop): Dropout(p=0.0, inplace=False)
            )
            (norm_2): LayerNorm((768,), eps=1e-06, elementwise_affine=True)
          )
          (2): BlockWithMasking(
            (attn): MultiheadAttention(
              (out_proj): NonDynamicallyQuantizableLinear(in_features=768, out_features=768, bias=True)
            )
            (drop_path): DropPath(drop_prob=0.018)
            (norm_1): LayerNorm((768,), eps=1e-06, elementwise_affine=True)
            (mlp): Mlp(
              (fc1): Linear(in_features=768, out_features=3072, bias=True)
              (act): GELU(approximate='none')
              (fc2): Linear(in_features=3072, out_features=768, bias=True)
              (drop): Dropout(p=0.0, inplace=False)
            )
            (norm_2): LayerNorm((768,), eps=1e-06, elementwise_affine=True)
          )
          (3): BlockWithMasking(
            (attn): MultiheadAttention(
              (out_proj): NonDynamicallyQuantizableLinear(in_features=768, out_features=768, bias=True)
            )
            (drop_path): DropPath(drop_prob=0.027)
            (norm_1): LayerNorm((768,), eps=1e-06, elementwise_affine=True)
            (mlp): Mlp(
              (fc1): Linear(in_features=768, out_features=3072, bias=True)
              (act): GELU(approximate='none')
              (fc2): Linear(in_features=3072, out_features=768, bias=True)
              (drop): Dropout(p=0.0, inplace=False)
            )
            (norm_2): LayerNorm((768,), eps=1e-06, elementwise_affine=True)
          )
          (4): BlockWithMasking(
            (attn): MultiheadAttention(
              (out_proj): NonDynamicallyQuantizableLinear(in_features=768, out_features=768, bias=True)
            )
            (drop_path): DropPath(drop_prob=0.036)
            (norm_1): LayerNorm((768,), eps=1e-06, elementwise_affine=True)
            (mlp): Mlp(
              (fc1): Linear(in_features=768, out_features=3072, bias=True)
              (act): GELU(approximate='none')
              (fc2): Linear(in_features=3072, out_features=768, bias=True)
              (drop): Dropout(p=0.0, inplace=False)
            )
            (norm_2): LayerNorm((768,), eps=1e-06, elementwise_affine=True)
          )
          (5): BlockWithMasking(
            (attn): MultiheadAttention(
              (out_proj): NonDynamicallyQuantizableLinear(in_features=768, out_features=768, bias=True)
            )
            (drop_path): DropPath(drop_prob=0.045)
            (norm_1): LayerNorm((768,), eps=1e-06, elementwise_affine=True)
            (mlp): Mlp(
              (fc1): Linear(in_features=768, out_features=3072, bias=True)
              (act): GELU(approximate='none')
              (fc2): Linear(in_features=3072, out_features=768, bias=True)
              (drop): Dropout(p=0.0, inplace=False)
            )
            (norm_2): LayerNorm((768,), eps=1e-06, elementwise_affine=True)
          )
          (6): BlockWithMasking(
            (attn): MultiheadAttention(
              (out_proj): NonDynamicallyQuantizableLinear(in_features=768, out_features=768, bias=True)
            )
            (drop_path): DropPath(drop_prob=0.055)
            (norm_1): LayerNorm((768,), eps=1e-06, elementwise_affine=True)
            (mlp): Mlp(
              (fc1): Linear(in_features=768, out_features=3072, bias=True)
              (act): GELU(approximate='none')
              (fc2): Linear(in_features=3072, out_features=768, bias=True)
              (drop): Dropout(p=0.0, inplace=False)
            )
            (norm_2): LayerNorm((768,), eps=1e-06, elementwise_affine=True)
          )
          (7): BlockWithMasking(
            (attn): MultiheadAttention(
              (out_proj): NonDynamicallyQuantizableLinear(in_features=768, out_features=768, bias=True)
            )
            (drop_path): DropPath(drop_prob=0.064)
            (norm_1): LayerNorm((768,), eps=1e-06, elementwise_affine=True)
            (mlp): Mlp(
              (fc1): Linear(in_features=768, out_features=3072, bias=True)
              (act): GELU(approximate='none')
              (fc2): Linear(in_features=3072, out_features=768, bias=True)
              (drop): Dropout(p=0.0, inplace=False)
            )
            (norm_2): LayerNorm((768,), eps=1e-06, elementwise_affine=True)
          )
          (8): BlockWithMasking(
            (attn): MultiheadAttention(
              (out_proj): NonDynamicallyQuantizableLinear(in_features=768, out_features=768, bias=True)
            )
            (drop_path): DropPath(drop_prob=0.073)
            (norm_1): LayerNorm((768,), eps=1e-06, elementwise_affine=True)
            (mlp): Mlp(
              (fc1): Linear(in_features=768, out_features=3072, bias=True)
              (act): GELU(approximate='none')
              (fc2): Linear(in_features=3072, out_features=768, bias=True)
              (drop): Dropout(p=0.0, inplace=False)
            )
            (norm_2): LayerNorm((768,), eps=1e-06, elementwise_affine=True)
          )
          (9): BlockWithMasking(
            (attn): MultiheadAttention(
              (out_proj): NonDynamicallyQuantizableLinear(in_features=768, out_features=768, bias=True)
            )
            (drop_path): DropPath(drop_prob=0.082)
            (norm_1): LayerNorm((768,), eps=1e-06, elementwise_affine=True)
            (mlp): Mlp(
              (fc1): Linear(in_features=768, out_features=3072, bias=True)
              (act): GELU(approximate='none')
              (fc2): Linear(in_features=3072, out_features=768, bias=True)
              (drop): Dropout(p=0.0, inplace=False)
            )
            (norm_2): LayerNorm((768,), eps=1e-06, elementwise_affine=True)
          )
          (10): BlockWithMasking(
            (attn): MultiheadAttention(
              (out_proj): NonDynamicallyQuantizableLinear(in_features=768, out_features=768, bias=True)
            )
            (drop_path): DropPath(drop_prob=0.091)
            (norm_1): LayerNorm((768,), eps=1e-06, elementwise_affine=True)
            (mlp): Mlp(
              (fc1): Linear(in_features=768, out_features=3072, bias=True)
              (act): GELU(approximate='none')
              (fc2): Linear(in_features=3072, out_features=768, bias=True)
              (drop): Dropout(p=0.0, inplace=False)
            )
            (norm_2): LayerNorm((768,), eps=1e-06, elementwise_affine=True)
          )
          (11): BlockWithMasking(
            (attn): MultiheadAttention(
              (out_proj): NonDynamicallyQuantizableLinear(in_features=768, out_features=768, bias=True)
            )
            (drop_path): DropPath(drop_prob=0.100)
            (norm_1): LayerNorm((768,), eps=1e-06, elementwise_affine=True)
            (mlp): Mlp(
              (fc1): Linear(in_features=768, out_features=3072, bias=True)
              (act): GELU(approximate='none')
              (fc2): Linear(in_features=3072, out_features=768, bias=True)
              (drop): Dropout(p=0.0, inplace=False)
            )
            (norm_2): LayerNorm((768,), eps=1e-06, elementwise_affine=True)
          )
        )
        (post_transformer_layer): EinOpsRearrange()
      )
      (depth): SimpleTransformer(
        (pre_transformer_layer): Sequential(
          (0): Identity()
          (1): EinOpsRearrange()
        )
        (blocks): Sequential(
          (0): BlockWithMasking(
            (attn): MultiheadAttention(
              (out_proj): NonDynamicallyQuantizableLinear(in_features=384, out_features=384, bias=True)
            )
            (drop_path): Identity()
            (norm_1): LayerNorm((384,), eps=1e-06, elementwise_affine=True)
            (mlp): Mlp(
              (fc1): Linear(in_features=384, out_features=1536, bias=True)
              (act): GELU(approximate='none')
              (fc2): Linear(in_features=1536, out_features=384, bias=True)
              (drop): Dropout(p=0.0, inplace=False)
            )
            (norm_2): LayerNorm((384,), eps=1e-06, elementwise_affine=True)
          )
          (1): BlockWithMasking(
            (attn): MultiheadAttention(
              (out_proj): NonDynamicallyQuantizableLinear(in_features=384, out_features=384, bias=True)
            )
            (drop_path): Identity()
            (norm_1): LayerNorm((384,), eps=1e-06, elementwise_affine=True)
            (mlp): Mlp(
              (fc1): Linear(in_features=384, out_features=1536, bias=True)
              (act): GELU(approximate='none')
              (fc2): Linear(in_features=1536, out_features=384, bias=True)
              (drop): Dropout(p=0.0, inplace=False)
            )
            (norm_2): LayerNorm((384,), eps=1e-06, elementwise_affine=True)
          )
          (2): BlockWithMasking(
            (attn): MultiheadAttention(
              (out_proj): NonDynamicallyQuantizableLinear(in_features=384, out_features=384, bias=True)
            )
            (drop_path): Identity()
            (norm_1): LayerNorm((384,), eps=1e-06, elementwise_affine=True)
            (mlp): Mlp(
              (fc1): Linear(in_features=384, out_features=1536, bias=True)
              (act): GELU(approximate='none')
              (fc2): Linear(in_features=1536, out_features=384, bias=True)
              (drop): Dropout(p=0.0, inplace=False)
            )
            (norm_2): LayerNorm((384,), eps=1e-06, elementwise_affine=True)
          )
          (3): BlockWithMasking(
            (attn): MultiheadAttention(
              (out_proj): NonDynamicallyQuantizableLinear(in_features=384, out_features=384, bias=True)
            )
            (drop_path): Identity()
            (norm_1): LayerNorm((384,), eps=1e-06, elementwise_affine=True)
            (mlp): Mlp(
              (fc1): Linear(in_features=384, out_features=1536, bias=True)
              (act): GELU(approximate='none')
              (fc2): Linear(in_features=1536, out_features=384, bias=True)
              (drop): Dropout(p=0.0, inplace=False)
            )
            (norm_2): LayerNorm((384,), eps=1e-06, elementwise_affine=True)
          )
          (4): BlockWithMasking(
            (attn): MultiheadAttention(
              (out_proj): NonDynamicallyQuantizableLinear(in_features=384, out_features=384, bias=True)
            )
            (drop_path): Identity()
            (norm_1): LayerNorm((384,), eps=1e-06, elementwise_affine=True)
            (mlp): Mlp(
              (fc1): Linear(in_features=384, out_features=1536, bias=True)
              (act): GELU(approximate='none')
              (fc2): Linear(in_features=1536, out_features=384, bias=True)
              (drop): Dropout(p=0.0, inplace=False)
            )
            (norm_2): LayerNorm((384,), eps=1e-06, elementwise_affine=True)
          )
          (5): BlockWithMasking(
            (attn): MultiheadAttention(
              (out_proj): NonDynamicallyQuantizableLinear(in_features=384, out_features=384, bias=True)
            )
            (drop_path): Identity()
            (norm_1): LayerNorm((384,), eps=1e-06, elementwise_affine=True)
            (mlp): Mlp(
              (fc1): Linear(in_features=384, out_features=1536, bias=True)
              (act): GELU(approximate='none')
              (fc2): Linear(in_features=1536, out_features=384, bias=True)
              (drop): Dropout(p=0.0, inplace=False)
            )
            (norm_2): LayerNorm((384,), eps=1e-06, elementwise_affine=True)
          )
          (6): BlockWithMasking(
            (attn): MultiheadAttention(
              (out_proj): NonDynamicallyQuantizableLinear(in_features=384, out_features=384, bias=True)
            )
            (drop_path): Identity()
            (norm_1): LayerNorm((384,), eps=1e-06, elementwise_affine=True)
            (mlp): Mlp(
              (fc1): Linear(in_features=384, out_features=1536, bias=True)
              (act): GELU(approximate='none')
              (fc2): Linear(in_features=1536, out_features=384, bias=True)
              (drop): Dropout(p=0.0, inplace=False)
            )
            (norm_2): LayerNorm((384,), eps=1e-06, elementwise_affine=True)
          )
          (7): BlockWithMasking(
            (attn): MultiheadAttention(
              (out_proj): NonDynamicallyQuantizableLinear(in_features=384, out_features=384, bias=True)
            )
            (drop_path): Identity()
            (norm_1): LayerNorm((384,), eps=1e-06, elementwise_affine=True)
            (mlp): Mlp(
              (fc1): Linear(in_features=384, out_features=1536, bias=True)
              (act): GELU(approximate='none')
              (fc2): Linear(in_features=1536, out_features=384, bias=True)
              (drop): Dropout(p=0.0, inplace=False)
            )
            (norm_2): LayerNorm((384,), eps=1e-06, elementwise_affine=True)
          )
          (8): BlockWithMasking(
            (attn): MultiheadAttention(
              (out_proj): NonDynamicallyQuantizableLinear(in_features=384, out_features=384, bias=True)
            )
            (drop_path): Identity()
            (norm_1): LayerNorm((384,), eps=1e-06, elementwise_affine=True)
            (mlp): Mlp(
              (fc1): Linear(in_features=384, out_features=1536, bias=True)
              (act): GELU(approximate='none')
              (fc2): Linear(in_features=1536, out_features=384, bias=True)
              (drop): Dropout(p=0.0, inplace=False)
            )
            (norm_2): LayerNorm((384,), eps=1e-06, elementwise_affine=True)
          )
          (9): BlockWithMasking(
            (attn): MultiheadAttention(
              (out_proj): NonDynamicallyQuantizableLinear(in_features=384, out_features=384, bias=True)
            )
            (drop_path): Identity()
            (norm_1): LayerNorm((384,), eps=1e-06, elementwise_affine=True)
            (mlp): Mlp(
              (fc1): Linear(in_features=384, out_features=1536, bias=True)
              (act): GELU(approximate='none')
              (fc2): Linear(in_features=1536, out_features=384, bias=True)
              (drop): Dropout(p=0.0, inplace=False)
            )
            (norm_2): LayerNorm((384,), eps=1e-06, elementwise_affine=True)
          )
          (10): BlockWithMasking(
            (attn): MultiheadAttention(
              (out_proj): NonDynamicallyQuantizableLinear(in_features=384, out_features=384, bias=True)
            )
            (drop_path): Identity()
            (norm_1): LayerNorm((384,), eps=1e-06, elementwise_affine=True)
            (mlp): Mlp(
              (fc1): Linear(in_features=384, out_features=1536, bias=True)
              (act): GELU(approximate='none')
              (fc2): Linear(in_features=1536, out_features=384, bias=True)
              (drop): Dropout(p=0.0, inplace=False)
            )
            (norm_2): LayerNorm((384,), eps=1e-06, elementwise_affine=True)
          )
          (11): BlockWithMasking(
            (attn): MultiheadAttention(
              (out_proj): NonDynamicallyQuantizableLinear(in_features=384, out_features=384, bias=True)
            )
            (drop_path): Identity()
            (norm_1): LayerNorm((384,), eps=1e-06, elementwise_affine=True)
            (mlp): Mlp(
              (fc1): Linear(in_features=384, out_features=1536, bias=True)
              (act): GELU(approximate='none')
              (fc2): Linear(in_features=1536, out_features=384, bias=True)
              (drop): Dropout(p=0.0, inplace=False)
            )
            (norm_2): LayerNorm((384,), eps=1e-06, elementwise_affine=True)
          )
        )
        (post_transformer_layer): EinOpsRearrange()
      )
      (thermal): SimpleTransformer(
        (pre_transformer_layer): Sequential(
          (0): Identity()
          (1): EinOpsRearrange()
        )
        (blocks): Sequential(
          (0): BlockWithMasking(
            (attn): MultiheadAttention(
              (out_proj): NonDynamicallyQuantizableLinear(in_features=768, out_features=768, bias=True)
            )
            (drop_path): Identity()
            (norm_1): LayerNorm((768,), eps=1e-06, elementwise_affine=True)
            (mlp): Mlp(
              (fc1): Linear(in_features=768, out_features=3072, bias=True)
              (act): GELU(approximate='none')
              (fc2): Linear(in_features=3072, out_features=768, bias=True)
              (drop): Dropout(p=0.0, inplace=False)
            )
            (norm_2): LayerNorm((768,), eps=1e-06, elementwise_affine=True)
          )
          (1): BlockWithMasking(
            (attn): MultiheadAttention(
              (out_proj): NonDynamicallyQuantizableLinear(in_features=768, out_features=768, bias=True)
            )
            (drop_path): Identity()
            (norm_1): LayerNorm((768,), eps=1e-06, elementwise_affine=True)
            (mlp): Mlp(
              (fc1): Linear(in_features=768, out_features=3072, bias=True)
              (act): GELU(approximate='none')
              (fc2): Linear(in_features=3072, out_features=768, bias=True)
              (drop): Dropout(p=0.0, inplace=False)
            )
            (norm_2): LayerNorm((768,), eps=1e-06, elementwise_affine=True)
          )
          (2): BlockWithMasking(
            (attn): MultiheadAttention(
              (out_proj): NonDynamicallyQuantizableLinear(in_features=768, out_features=768, bias=True)
            )
            (drop_path): Identity()
            (norm_1): LayerNorm((768,), eps=1e-06, elementwise_affine=True)
            (mlp): Mlp(
              (fc1): Linear(in_features=768, out_features=3072, bias=True)
              (act): GELU(approximate='none')
              (fc2): Linear(in_features=3072, out_features=768, bias=True)
              (drop): Dropout(p=0.0, inplace=False)
            )
            (norm_2): LayerNorm((768,), eps=1e-06, elementwise_affine=True)
          )
          (3): BlockWithMasking(
            (attn): MultiheadAttention(
              (out_proj): NonDynamicallyQuantizableLinear(in_features=768, out_features=768, bias=True)
            )
            (drop_path): Identity()
            (norm_1): LayerNorm((768,), eps=1e-06, elementwise_affine=True)
            (mlp): Mlp(
              (fc1): Linear(in_features=768, out_features=3072, bias=True)
              (act): GELU(approximate='none')
              (fc2): Linear(in_features=3072, out_features=768, bias=True)
              (drop): Dropout(p=0.0, inplace=False)
            )
            (norm_2): LayerNorm((768,), eps=1e-06, elementwise_affine=True)
          )
          (4): BlockWithMasking(
            (attn): MultiheadAttention(
              (out_proj): NonDynamicallyQuantizableLinear(in_features=768, out_features=768, bias=True)
            )
            (drop_path): Identity()
            (norm_1): LayerNorm((768,), eps=1e-06, elementwise_affine=True)
            (mlp): Mlp(
              (fc1): Linear(in_features=768, out_features=3072, bias=True)
              (act): GELU(approximate='none')
              (fc2): Linear(in_features=3072, out_features=768, bias=True)
              (drop): Dropout(p=0.0, inplace=False)
            )
            (norm_2): LayerNorm((768,), eps=1e-06, elementwise_affine=True)
          )
          (5): BlockWithMasking(
            (attn): MultiheadAttention(
              (out_proj): NonDynamicallyQuantizableLinear(in_features=768, out_features=768, bias=True)
            )
            (drop_path): Identity()
            (norm_1): LayerNorm((768,), eps=1e-06, elementwise_affine=True)
            (mlp): Mlp(
              (fc1): Linear(in_features=768, out_features=3072, bias=True)
              (act): GELU(approximate='none')
              (fc2): Linear(in_features=3072, out_features=768, bias=True)
              (drop): Dropout(p=0.0, inplace=False)
            )
            (norm_2): LayerNorm((768,), eps=1e-06, elementwise_affine=True)
          )
          (6): BlockWithMasking(
            (attn): MultiheadAttention(
              (out_proj): NonDynamicallyQuantizableLinear(in_features=768, out_features=768, bias=True)
            )
            (drop_path): Identity()
            (norm_1): LayerNorm((768,), eps=1e-06, elementwise_affine=True)
            (mlp): Mlp(
              (fc1): Linear(in_features=768, out_features=3072, bias=True)
              (act): GELU(approximate='none')
              (fc2): Linear(in_features=3072, out_features=768, bias=True)
              (drop): Dropout(p=0.0, inplace=False)
            )
            (norm_2): LayerNorm((768,), eps=1e-06, elementwise_affine=True)
          )
          (7): BlockWithMasking(
            (attn): MultiheadAttention(
              (out_proj): NonDynamicallyQuantizableLinear(in_features=768, out_features=768, bias=True)
            )
            (drop_path): Identity()
            (norm_1): LayerNorm((768,), eps=1e-06, elementwise_affine=True)
            (mlp): Mlp(
              (fc1): Linear(in_features=768, out_features=3072, bias=True)
              (act): GELU(approximate='none')
              (fc2): Linear(in_features=3072, out_features=768, bias=True)
              (drop): Dropout(p=0.0, inplace=False)
            )
            (norm_2): LayerNorm((768,), eps=1e-06, elementwise_affine=True)
          )
          (8): BlockWithMasking(
            (attn): MultiheadAttention(
              (out_proj): NonDynamicallyQuantizableLinear(in_features=768, out_features=768, bias=True)
            )
            (drop_path): Identity()
            (norm_1): LayerNorm((768,), eps=1e-06, elementwise_affine=True)
            (mlp): Mlp(
              (fc1): Linear(in_features=768, out_features=3072, bias=True)
              (act): GELU(approximate='none')
              (fc2): Linear(in_features=3072, out_features=768, bias=True)
              (drop): Dropout(p=0.0, inplace=False)
            )
            (norm_2): LayerNorm((768,), eps=1e-06, elementwise_affine=True)
          )
          (9): BlockWithMasking(
            (attn): MultiheadAttention(
              (out_proj): NonDynamicallyQuantizableLinear(in_features=768, out_features=768, bias=True)
            )
            (drop_path): Identity()
            (norm_1): LayerNorm((768,), eps=1e-06, elementwise_affine=True)
            (mlp): Mlp(
              (fc1): Linear(in_features=768, out_features=3072, bias=True)
              (act): GELU(approximate='none')
              (fc2): Linear(in_features=3072, out_features=768, bias=True)
              (drop): Dropout(p=0.0, inplace=False)
            )
            (norm_2): LayerNorm((768,), eps=1e-06, elementwise_affine=True)
          )
          (10): BlockWithMasking(
            (attn): MultiheadAttention(
              (out_proj): NonDynamicallyQuantizableLinear(in_features=768, out_features=768, bias=True)
            )
            (drop_path): Identity()
            (norm_1): LayerNorm((768,), eps=1e-06, elementwise_affine=True)
            (mlp): Mlp(
              (fc1): Linear(in_features=768, out_features=3072, bias=True)
              (act): GELU(approximate='none')
              (fc2): Linear(in_features=3072, out_features=768, bias=True)
              (drop): Dropout(p=0.0, inplace=False)
            )
            (norm_2): LayerNorm((768,), eps=1e-06, elementwise_affine=True)
          )
          (11): BlockWithMasking(
            (attn): MultiheadAttention(
              (out_proj): NonDynamicallyQuantizableLinear(in_features=768, out_features=768, bias=True)
            )
            (drop_path): Identity()
            (norm_1): LayerNorm((768,), eps=1e-06, elementwise_affine=True)
            (mlp): Mlp(
              (fc1): Linear(in_features=768, out_features=3072, bias=True)
              (act): GELU(approximate='none')
              (fc2): Linear(in_features=3072, out_features=768, bias=True)
              (drop): Dropout(p=0.0, inplace=False)
            )
            (norm_2): LayerNorm((768,), eps=1e-06, elementwise_affine=True)
          )
        )
        (post_transformer_layer): EinOpsRearrange()
      )
      (imu): SimpleTransformer(
        (pre_transformer_layer): Sequential(
          (0): Identity()
          (1): EinOpsRearrange()
        )
        (blocks): Sequential(
          (0): BlockWithMasking(
            (attn): MultiheadAttention(
              (out_proj): NonDynamicallyQuantizableLinear(in_features=512, out_features=512, bias=True)
            )
            (drop_path): Identity()
            (norm_1): LayerNorm((512,), eps=1e-06, elementwise_affine=True)
            (mlp): Mlp(
              (fc1): Linear(in_features=512, out_features=2048, bias=True)
              (act): GELU(approximate='none')
              (fc2): Linear(in_features=2048, out_features=512, bias=True)
              (drop): Dropout(p=0.0, inplace=False)
            )
            (norm_2): LayerNorm((512,), eps=1e-06, elementwise_affine=True)
          )
          (1): BlockWithMasking(
            (attn): MultiheadAttention(
              (out_proj): NonDynamicallyQuantizableLinear(in_features=512, out_features=512, bias=True)
            )
            (drop_path): DropPath(drop_prob=0.140)
            (norm_1): LayerNorm((512,), eps=1e-06, elementwise_affine=True)
            (mlp): Mlp(
              (fc1): Linear(in_features=512, out_features=2048, bias=True)
              (act): GELU(approximate='none')
              (fc2): Linear(in_features=2048, out_features=512, bias=True)
              (drop): Dropout(p=0.0, inplace=False)
            )
            (norm_2): LayerNorm((512,), eps=1e-06, elementwise_affine=True)
          )
          (2): BlockWithMasking(
            (attn): MultiheadAttention(
              (out_proj): NonDynamicallyQuantizableLinear(in_features=512, out_features=512, bias=True)
            )
            (drop_path): DropPath(drop_prob=0.280)
            (norm_1): LayerNorm((512,), eps=1e-06, elementwise_affine=True)
            (mlp): Mlp(
              (fc1): Linear(in_features=512, out_features=2048, bias=True)
              (act): GELU(approximate='none')
              (fc2): Linear(in_features=2048, out_features=512, bias=True)
              (drop): Dropout(p=0.0, inplace=False)
            )
            (norm_2): LayerNorm((512,), eps=1e-06, elementwise_affine=True)
          )
          (3): BlockWithMasking(
            (attn): MultiheadAttention(
              (out_proj): NonDynamicallyQuantizableLinear(in_features=512, out_features=512, bias=True)
            )
            (drop_path): DropPath(drop_prob=0.420)
            (norm_1): LayerNorm((512,), eps=1e-06, elementwise_affine=True)
            (mlp): Mlp(
              (fc1): Linear(in_features=512, out_features=2048, bias=True)
              (act): GELU(approximate='none')
              (fc2): Linear(in_features=2048, out_features=512, bias=True)
              (drop): Dropout(p=0.0, inplace=False)
            )
            (norm_2): LayerNorm((512,), eps=1e-06, elementwise_affine=True)
          )
          (4): BlockWithMasking(
            (attn): MultiheadAttention(
              (out_proj): NonDynamicallyQuantizableLinear(in_features=512, out_features=512, bias=True)
            )
            (drop_path): DropPath(drop_prob=0.560)
            (norm_1): LayerNorm((512,), eps=1e-06, elementwise_affine=True)
            (mlp): Mlp(
              (fc1): Linear(in_features=512, out_features=2048, bias=True)
              (act): GELU(approximate='none')
              (fc2): Linear(in_features=2048, out_features=512, bias=True)
              (drop): Dropout(p=0.0, inplace=False)
            )
            (norm_2): LayerNorm((512,), eps=1e-06, elementwise_affine=True)
          )
          (5): BlockWithMasking(
            (attn): MultiheadAttention(
              (out_proj): NonDynamicallyQuantizableLinear(in_features=512, out_features=512, bias=True)
            )
            (drop_path): DropPath(drop_prob=0.700)
            (norm_1): LayerNorm((512,), eps=1e-06, elementwise_affine=True)
            (mlp): Mlp(
              (fc1): Linear(in_features=512, out_features=2048, bias=True)
              (act): GELU(approximate='none')
              (fc2): Linear(in_features=2048, out_features=512, bias=True)
              (drop): Dropout(p=0.0, inplace=False)
            )
            (norm_2): LayerNorm((512,), eps=1e-06, elementwise_affine=True)
          )
        )
        (post_transformer_layer): EinOpsRearrange()
      )
    )
    (modality_heads): ModuleDict(
      (vision): Sequential(
        (0): LayerNorm((1280,), eps=1e-06, elementwise_affine=True)
        (1): SelectElement()
        (2): Linear(in_features=1280, out_features=1024, bias=False)
      )
      (text): SelectEOSAndProject(
        (proj): Sequential(
          (0): LayerNorm((1024,), eps=1e-06, elementwise_affine=True)
          (1): Linear(in_features=1024, out_features=1024, bias=False)
        )
      )
      (audio): Sequential(
        (0): LayerNorm((768,), eps=1e-06, elementwise_affine=True)
        (1): SelectElement()
        (2): Linear(in_features=768, out_features=1024, bias=False)
      )
      (depth): Sequential(
        (0): LayerNorm((384,), eps=1e-06, elementwise_affine=True)
        (1): SelectElement()
        (2): Linear(in_features=384, out_features=1024, bias=False)
      )
      (thermal): Sequential(
        (0): LayerNorm((768,), eps=1e-06, elementwise_affine=True)
        (1): SelectElement()
        (2): Linear(in_features=768, out_features=1024, bias=False)
      )
      (imu): Sequential(
        (0): LayerNorm((512,), eps=1e-06, elementwise_affine=True)
        (1): SelectElement()
        (2): Dropout(p=0.5, inplace=False)
        (3): Linear(in_features=512, out_features=1024, bias=False)
      )
      (point): Sequential(
        (0): LayerNorm((512,), eps=1e-06, elementwise_affine=True)
        (1): Dropout(p=0.5, inplace=False)
        (2): Linear(in_features=512, out_features=1024, bias=False)
      )
    )
    (modality_postprocessors): ModuleDict(
      (vision): Normalize()
      (text): Sequential(
        (0): Normalize()
        (1): LearnableLogitScaling(logit_scale_init=14.285714285714285,learnable=True, max_logit_scale=100)
      )
      (audio): Sequential(
        (0): Normalize()
        (1): LearnableLogitScaling(logit_scale_init=20.0,learnable=False, max_logit_scale=100)
…
        (1): LearnableLogitScaling(logit_scale_init=10.0,learnable=False, max_logit_scale=100)
      )
      (imu): Sequential(
        (0): Normalize()
        (1): LearnableLogitScaling(logit_scale_init=5.0,learnable=False, max_logit_scale=100)
      )
      (point): Sequential(
        (0): Normalize()
        (1): LearnableLogitScaling(logit_scale_init=1.0,learnable=False, max_logit_scale=100)
      )
    )
    (point_trunk): PointTransformerBind(
      (point_encoder): PointTransformer(
        (group_divider): Group()
        (encoder): Encoder(
          (first_conv): Sequential(
            (0): Conv1d(3, 128, kernel_size=(1,), stride=(1,))
            (1): BatchNorm1d(128, eps=1e-05, momentum=0.1, affine=True, track_running_stats=True)
            (2): ReLU(inplace=True)
            (3): Conv1d(128, 256, kernel_size=(1,), stride=(1,))
          )
          (second_conv): Sequential(
            (0): Conv1d(512, 512, kernel_size=(1,), stride=(1,))
            (1): BatchNorm1d(512, eps=1e-05, momentum=0.1, affine=True, track_running_stats=True)
            (2): ReLU(inplace=True)
            (3): Conv1d(512, 256, kernel_size=(1,), stride=(1,))
          )
        )
        (reduce_dim): Linear(in_features=256, out_features=384, bias=True)
        (pos_embed): Sequential(
          (0): Linear(in_features=3, out_features=128, bias=True)
          (1): GELU(approximate='none')
          (2): Linear(in_features=128, out_features=384, bias=True)
        )
        (blocks): TransformerEncoder(
          (blocks): ModuleList(
            (0): Block(
              (norm1): LayerNorm((384,), eps=1e-05, elementwise_affine=True)
              (drop_path): Identity()
              (norm2): LayerNorm((384,), eps=1e-05, elementwise_affine=True)
              (mlp): Mlp(
                (fc1): Linear(in_features=384, out_features=1536, bias=True)
                (act): GELU(approximate='none')
                (fc2): Linear(in_features=1536, out_features=384, bias=True)
                (drop): Dropout(p=0.0, inplace=False)
              )
              (attn): Attention(
                (qkv): Linear(in_features=384, out_features=1152, bias=False)
                (attn_drop): Dropout(p=0.0, inplace=False)
                (proj): Linear(in_features=384, out_features=384, bias=True)
                (proj_drop): Dropout(p=0.0, inplace=False)
              )
            )
            (1): Block(
              (norm1): LayerNorm((384,), eps=1e-05, elementwise_affine=True)
              (drop_path): DropPath(drop_prob=0.009)
              (norm2): LayerNorm((384,), eps=1e-05, elementwise_affine=True)
              (mlp): Mlp(
                (fc1): Linear(in_features=384, out_features=1536, bias=True)
                (act): GELU(approximate='none')
                (fc2): Linear(in_features=1536, out_features=384, bias=True)
                (drop): Dropout(p=0.0, inplace=False)
              )
              (attn): Attention(
                (qkv): Linear(in_features=384, out_features=1152, bias=False)
                (attn_drop): Dropout(p=0.0, inplace=False)
                (proj): Linear(in_features=384, out_features=384, bias=True)
                (proj_drop): Dropout(p=0.0, inplace=False)
              )
            )
            (2): Block(
              (norm1): LayerNorm((384,), eps=1e-05, elementwise_affine=True)
              (drop_path): DropPath(drop_prob=0.018)
              (norm2): LayerNorm((384,), eps=1e-05, elementwise_affine=True)
              (mlp): Mlp(
                (fc1): Linear(in_features=384, out_features=1536, bias=True)
                (act): GELU(approximate='none')
                (fc2): Linear(in_features=1536, out_features=384, bias=True)
                (drop): Dropout(p=0.0, inplace=False)
              )
              (attn): Attention(
                (qkv): Linear(in_features=384, out_features=1152, bias=False)
                (attn_drop): Dropout(p=0.0, inplace=False)
                (proj): Linear(in_features=384, out_features=384, bias=True)
                (proj_drop): Dropout(p=0.0, inplace=False)
              )
            )
            (3): Block(
              (norm1): LayerNorm((384,), eps=1e-05, elementwise_affine=True)
              (drop_path): DropPath(drop_prob=0.027)
              (norm2): LayerNorm((384,), eps=1e-05, elementwise_affine=True)
              (mlp): Mlp(
                (fc1): Linear(in_features=384, out_features=1536, bias=True)
                (act): GELU(approximate='none')
                (fc2): Linear(in_features=1536, out_features=384, bias=True)
                (drop): Dropout(p=0.0, inplace=False)
              )
              (attn): Attention(
                (qkv): Linear(in_features=384, out_features=1152, bias=False)
                (attn_drop): Dropout(p=0.0, inplace=False)
                (proj): Linear(in_features=384, out_features=384, bias=True)
                (proj_drop): Dropout(p=0.0, inplace=False)
              )
            )
            (4): Block(
              (norm1): LayerNorm((384,), eps=1e-05, elementwise_affine=True)
              (drop_path): DropPath(drop_prob=0.036)
              (norm2): LayerNorm((384,), eps=1e-05, elementwise_affine=True)
              (mlp): Mlp(
                (fc1): Linear(in_features=384, out_features=1536, bias=True)
                (act): GELU(approximate='none')
                (fc2): Linear(in_features=1536, out_features=384, bias=True)
                (drop): Dropout(p=0.0, inplace=False)
              )
              (attn): Attention(
                (qkv): Linear(in_features=384, out_features=1152, bias=False)
                (attn_drop): Dropout(p=0.0, inplace=False)
                (proj): Linear(in_features=384, out_features=384, bias=True)
                (proj_drop): Dropout(p=0.0, inplace=False)
              )
            )
            (5): Block(
              (norm1): LayerNorm((384,), eps=1e-05, elementwise_affine=True)
              (drop_path): DropPath(drop_prob=0.045)
              (norm2): LayerNorm((384,), eps=1e-05, elementwise_affine=True)
              (mlp): Mlp(
                (fc1): Linear(in_features=384, out_features=1536, bias=True)
                (act): GELU(approximate='none')
                (fc2): Linear(in_features=1536, out_features=384, bias=True)
                (drop): Dropout(p=0.0, inplace=False)
              )
              (attn): Attention(
                (qkv): Linear(in_features=384, out_features=1152, bias=False)
                (attn_drop): Dropout(p=0.0, inplace=False)
                (proj): Linear(in_features=384, out_features=384, bias=True)
                (proj_drop): Dropout(p=0.0, inplace=False)
              )
            )
            (6): Block(
              (norm1): LayerNorm((384,), eps=1e-05, elementwise_affine=True)
              (drop_path): DropPath(drop_prob=0.055)
              (norm2): LayerNorm((384,), eps=1e-05, elementwise_affine=True)
              (mlp): Mlp(
                (fc1): Linear(in_features=384, out_features=1536, bias=True)
                (act): GELU(approximate='none')
                (fc2): Linear(in_features=1536, out_features=384, bias=True)
                (drop): Dropout(p=0.0, inplace=False)
              )
              (attn): Attention(
                (qkv): Linear(in_features=384, out_features=1152, bias=False)
                (attn_drop): Dropout(p=0.0, inplace=False)
                (proj): Linear(in_features=384, out_features=384, bias=True)
                (proj_drop): Dropout(p=0.0, inplace=False)
              )
            )
            (7): Block(
              (norm1): LayerNorm((384,), eps=1e-05, elementwise_affine=True)
              (drop_path): DropPath(drop_prob=0.064)
              (norm2): LayerNorm((384,), eps=1e-05, elementwise_affine=True)
              (mlp): Mlp(
                (fc1): Linear(in_features=384, out_features=1536, bias=True)
                (act): GELU(approximate='none')
                (fc2): Linear(in_features=1536, out_features=384, bias=True)
                (drop): Dropout(p=0.0, inplace=False)
              )
              (attn): Attention(
                (qkv): Linear(in_features=384, out_features=1152, bias=False)
                (attn_drop): Dropout(p=0.0, inplace=False)
                (proj): Linear(in_features=384, out_features=384, bias=True)
                (proj_drop): Dropout(p=0.0, inplace=False)
              )
            )
            (8): Block(
              (norm1): LayerNorm((384,), eps=1e-05, elementwise_affine=True)
              (drop_path): DropPath(drop_prob=0.073)
              (norm2): LayerNorm((384,), eps=1e-05, elementwise_affine=True)
              (mlp): Mlp(
                (fc1): Linear(in_features=384, out_features=1536, bias=True)
                (act): GELU(approximate='none')
                (fc2): Linear(in_features=1536, out_features=384, bias=True)
                (drop): Dropout(p=0.0, inplace=False)
              )
              (attn): Attention(
                (qkv): Linear(in_features=384, out_features=1152, bias=False)
                (attn_drop): Dropout(p=0.0, inplace=False)
                (proj): Linear(in_features=384, out_features=384, bias=True)
                (proj_drop): Dropout(p=0.0, inplace=False)
              )
            )
            (9): Block(
              (norm1): LayerNorm((384,), eps=1e-05, elementwise_affine=True)
              (drop_path): DropPath(drop_prob=0.082)
              (norm2): LayerNorm((384,), eps=1e-05, elementwise_affine=True)
              (mlp): Mlp(
                (fc1): Linear(in_features=384, out_features=1536, bias=True)
                (act): GELU(approximate='none')
                (fc2): Linear(in_features=1536, out_features=384, bias=True)
                (drop): Dropout(p=0.0, inplace=False)
              )
              (attn): Attention(
                (qkv): Linear(in_features=384, out_features=1152, bias=False)
                (attn_drop): Dropout(p=0.0, inplace=False)
                (proj): Linear(in_features=384, out_features=384, bias=True)
                (proj_drop): Dropout(p=0.0, inplace=False)
              )
            )
            (10): Block(
              (norm1): LayerNorm((384,), eps=1e-05, elementwise_affine=True)
              (drop_path): DropPath(drop_prob=0.091)
              (norm2): LayerNorm((384,), eps=1e-05, elementwise_affine=True)
              (mlp): Mlp(
                (fc1): Linear(in_features=384, out_features=1536, bias=True)
                (act): GELU(approximate='none')
                (fc2): Linear(in_features=1536, out_features=384, bias=True)
                (drop): Dropout(p=0.0, inplace=False)
              )
              (attn): Attention(
                (qkv): Linear(in_features=384, out_features=1152, bias=False)
                (attn_drop): Dropout(p=0.0, inplace=False)
                (proj): Linear(in_features=384, out_features=384, bias=True)
                (proj_drop): Dropout(p=0.0, inplace=False)
              )
            )
            (11): Block(
              (norm1): LayerNorm((384,), eps=1e-05, elementwise_affine=True)
              (drop_path): DropPath(drop_prob=0.100)
              (norm2): LayerNorm((384,), eps=1e-05, elementwise_affine=True)
              (mlp): Mlp(
                (fc1): Linear(in_features=384, out_features=1536, bias=True)
                (act): GELU(approximate='none')
                (fc2): Linear(in_features=1536, out_features=384, bias=True)
                (drop): Dropout(p=0.0, inplace=False)
              )
              (attn): Attention(
                (qkv): Linear(in_features=384, out_features=1152, bias=False)
                (attn_drop): Dropout(p=0.0, inplace=False)
                (proj): Linear(in_features=384, out_features=384, bias=True)
                (proj_drop): Dropout(p=0.0, inplace=False)
              )
            )
          )
        )
        (norm): LayerNorm((384,), eps=1e-05, elementwise_affine=True)
      )
    )
  )
  (image_bind_proj): Linear(in_features=1024, out_features=4096, bias=True)
  (image_bind_norm_1): RMSNorm()
  (image_bind_f1_1): Linear(in_features=4096, out_features=16384, bias=False)
  (image_bind_f2_1): Linear(in_features=16384, out_features=4096, bias=False)
  (image_bind_f3_1): Linear(in_features=4096, out_features=16384, bias=False)
  (image_bind_norm_2): RMSNorm()
  (image_bind_f1_2): Linear(in_features=4096, out_features=16384, bias=False)
  (image_bind_f2_2): Linear(in_features=16384, out_features=4096, bias=False)
  (image_bind_f3_2): Linear(in_features=4096, out_features=16384, bias=False)
  (image_bind_norm_3): RMSNorm()
  (image_bind_f1_3): Linear(in_features=4096, out_features=16384, bias=False)
  (image_bind_f2_3): Linear(in_features=16384, out_features=4096, bias=False)
  (image_bind_f3_3): Linear(in_features=4096, out_features=16384, bias=False)
  (llama): Transformer(
    (tok_embeddings): Embedding(32000, 4096)
    (layers): ModuleList(
      (0): TransformerBlock(
        (attention): Attention(
          (wq): Linear(in_features=4096, out_features=4096, bias=True)
          (wk): Linear(in_features=4096, out_features=4096, bias=False)
          (wv): Linear(in_features=4096, out_features=4096, bias=False)
          (wo): Linear(in_features=4096, out_features=4096, bias=True)
          (lora_wq_l1): Linear(in_features=4096, out_features=16, bias=False)
          (lora_wq_l2): Linear(in_features=16, out_features=4096, bias=False)
          (lora_wk_l1): Linear(in_features=4096, out_features=16, bias=False)
          (lora_wk_l2): Linear(in_features=16, out_features=4096, bias=False)
          (lora_wv_l1): Linear(in_features=4096, out_features=16, bias=False)
          (lora_wv_l2): Linear(in_features=16, out_features=4096, bias=False)
          (lora_wo_l1): Linear(in_features=4096, out_features=16, bias=False)
          (lora_wo_l2): Linear(in_features=16, out_features=4096, bias=False)
        )
        (feed_forward): FeedForward(
          (w1): Linear(in_features=4096, out_features=11008, bias=True)
          (w2): Linear(in_features=11008, out_features=4096, bias=True)
          (w3): Linear(in_features=4096, out_features=11008, bias=True)
          (lora_w1_l1): Linear(in_features=4096, out_features=16, bias=False)
          (lora_w1_l2): Linear(in_features=16, out_features=11008, bias=False)
          (lora_w2_l1): Linear(in_features=11008, out_features=16, bias=False)
          (lora_w2_l2): Linear(in_features=16, out_features=4096, bias=False)
          (lora_w3_l1): Linear(in_features=4096, out_features=16, bias=False)
          (lora_w3_l2): Linear(in_features=16, out_features=11008, bias=False)
        )
        (attention_norm): RMSNorm()
        (ffn_norm): RMSNorm()
      )
      (1): TransformerBlock(
        (attention): Attention(
          (wq): Linear(in_features=4096, out_features=4096, bias=True)
          (wk): Linear(in_features=4096, out_features=4096, bias=False)
          (wv): Linear(in_features=4096, out_features=4096, bias=False)
          (wo): Linear(in_features=4096, out_features=4096, bias=True)
          (lora_wq_l1): Linear(in_features=4096, out_features=16, bias=False)
          (lora_wq_l2): Linear(in_features=16, out_features=4096, bias=False)
          (lora_wk_l1): Linear(in_features=4096, out_features=16, bias=False)
          (lora_wk_l2): Linear(in_features=16, out_features=4096, bias=False)
          (lora_wv_l1): Linear(in_features=4096, out_features=16, bias=False)
          (lora_wv_l2): Linear(in_features=16, out_features=4096, bias=False)
          (lora_wo_l1): Linear(in_features=4096, out_features=16, bias=False)
          (lora_wo_l2): Linear(in_features=16, out_features=4096, bias=False)
        )
        (feed_forward): FeedForward(
          (w1): Linear(in_features=4096, out_features=11008, bias=True)
          (w2): Linear(in_features=11008, out_features=4096, bias=True)
          (w3): Linear(in_features=4096, out_features=11008, bias=True)
          (lora_w1_l1): Linear(in_features=4096, out_features=16, bias=False)
          (lora_w1_l2): Linear(in_features=16, out_features=11008, bias=False)
          (lora_w2_l1): Linear(in_features=11008, out_features=16, bias=False)
          (lora_w2_l2): Linear(in_features=16, out_features=4096, bias=False)
          (lora_w3_l1): Linear(in_features=4096, out_features=16, bias=False)
          (lora_w3_l2): Linear(in_features=16, out_features=11008, bias=False)
        )
        (attention_norm): RMSNorm()
        (ffn_norm): RMSNorm()
      )
      (2): TransformerBlock(
        (attention): Attention(
          (wq): Linear(in_features=4096, out_features=4096, bias=True)
          (wk): Linear(in_features=4096, out_features=4096, bias=False)
          (wv): Linear(in_features=4096, out_features=4096, bias=False)
          (wo): Linear(in_features=4096, out_features=4096, bias=True)
          (lora_wq_l1): Linear(in_features=4096, out_features=16, bias=False)
          (lora_wq_l2): Linear(in_features=16, out_features=4096, bias=False)
          (lora_wk_l1): Linear(in_features=4096, out_features=16, bias=False)
          (lora_wk_l2): Linear(in_features=16, out_features=4096, bias=False)
          (lora_wv_l1): Linear(in_features=4096, out_features=16, bias=False)
          (lora_wv_l2): Linear(in_features=16, out_features=4096, bias=False)
          (lora_wo_l1): Linear(in_features=4096, out_features=16, bias=False)
          (lora_wo_l2): Linear(in_features=16, out_features=4096, bias=False)
        )
        (feed_forward): FeedForward(
          (w1): Linear(in_features=4096, out_features=11008, bias=True)
          (w2): Linear(in_features=11008, out_features=4096, bias=True)
          (w3): Linear(in_features=4096, out_features=11008, bias=True)
          (lora_w1_l1): Linear(in_features=4096, out_features=16, bias=False)
          (lora_w1_l2): Linear(in_features=16, out_features=11008, bias=False)
          (lora_w2_l1): Linear(in_features=11008, out_features=16, bias=False)
          (lora_w2_l2): Linear(in_features=16, out_features=4096, bias=False)
          (lora_w3_l1): Linear(in_features=4096, out_features=16, bias=False)
          (lora_w3_l2): Linear(in_features=16, out_features=11008, bias=False)
        )
        (attention_norm): RMSNorm()
        (ffn_norm): RMSNorm()
      )
      (3): TransformerBlock(
        (attention): Attention(
          (wq): Linear(in_features=4096, out_features=4096, bias=True)
          (wk): Linear(in_features=4096, out_features=4096, bias=False)
          (wv): Linear(in_features=4096, out_features=4096, bias=False)
          (wo): Linear(in_features=4096, out_features=4096, bias=True)
          (lora_wq_l1): Linear(in_features=4096, out_features=16, bias=False)
          (lora_wq_l2): Linear(in_features=16, out_features=4096, bias=False)
          (lora_wk_l1): Linear(in_features=4096, out_features=16, bias=False)
          (lora_wk_l2): Linear(in_features=16, out_features=4096, bias=False)
          (lora_wv_l1): Linear(in_features=4096, out_features=16, bias=False)
          (lora_wv_l2): Linear(in_features=16, out_features=4096, bias=False)
          (lora_wo_l1): Linear(in_features=4096, out_features=16, bias=False)
          (lora_wo_l2): Linear(in_features=16, out_features=4096, bias=False)
        )
        (feed_forward): FeedForward(
          (w1): Linear(in_features=4096, out_features=11008, bias=True)
          (w2): Linear(in_features=11008, out_features=4096, bias=True)
          (w3): Linear(in_features=4096, out_features=11008, bias=True)
          (lora_w1_l1): Linear(in_features=4096, out_features=16, bias=False)
          (lora_w1_l2): Linear(in_features=16, out_features=11008, bias=False)
          (lora_w2_l1): Linear(in_features=11008, out_features=16, bias=False)
          (lora_w2_l2): Linear(in_features=16, out_features=4096, bias=False)
          (lora_w3_l1): Linear(in_features=4096, out_features=16, bias=False)
          (lora_w3_l2): Linear(in_features=16, out_features=11008, bias=False)
        )
        (attention_norm): RMSNorm()
        (ffn_norm): RMSNorm()
      )
      (4): TransformerBlock(
        (attention): Attention(
          (wq): Linear(in_features=4096, out_features=4096, bias=True)
          (wk): Linear(in_features=4096, out_features=4096, bias=False)
          (wv): Linear(in_features=4096, out_features=4096, bias=False)
          (wo): Linear(in_features=4096, out_features=4096, bias=True)
          (lora_wq_l1): Linear(in_features=4096, out_features=16, bias=False)
          (lora_wq_l2): Linear(in_features=16, out_features=4096, bias=False)
          (lora_wk_l1): Linear(in_features=4096, out_features=16, bias=False)
          (lora_wk_l2): Linear(in_features=16, out_features=4096, bias=False)
          (lora_wv_l1): Linear(in_features=4096, out_features=16, bias=False)
          (lora_wv_l2): Linear(in_features=16, out_features=4096, bias=False)
          (lora_wo_l1): Linear(in_features=4096, out_features=16, bias=False)
          (lora_wo_l2): Linear(in_features=16, out_features=4096, bias=False)
        )
        (feed_forward): FeedForward(
          (w1): Linear(in_features=4096, out_features=11008, bias=True)
          (w2): Linear(in_features=11008, out_features=4096, bias=True)
          (w3): Linear(in_features=4096, out_features=11008, bias=True)
          (lora_w1_l1): Linear(in_features=4096, out_features=16, bias=False)
          (lora_w1_l2): Linear(in_features=16, out_features=11008, bias=False)
          (lora_w2_l1): Linear(in_features=11008, out_features=16, bias=False)
          (lora_w2_l2): Linear(in_features=16, out_features=4096, bias=False)
          (lora_w3_l1): Linear(in_features=4096, out_features=16, bias=False)
          (lora_w3_l2): Linear(in_features=16, out_features=11008, bias=False)
        )
        (attention_norm): RMSNorm()
        (ffn_norm): RMSNorm()
      )
      (5): TransformerBlock(
        (attention): Attention(
          (wq): Linear(in_features=4096, out_features=4096, bias=True)
          (wk): Linear(in_features=4096, out_features=4096, bias=False)
          (wv): Linear(in_features=4096, out_features=4096, bias=False)
          (wo): Linear(in_features=4096, out_features=4096, bias=True)
          (lora_wq_l1): Linear(in_features=4096, out_features=16, bias=False)
          (lora_wq_l2): Linear(in_features=16, out_features=4096, bias=False)
          (lora_wk_l1): Linear(in_features=4096, out_features=16, bias=False)
          (lora_wk_l2): Linear(in_features=16, out_features=4096, bias=False)
          (lora_wv_l1): Linear(in_features=4096, out_features=16, bias=False)
          (lora_wv_l2): Linear(in_features=16, out_features=4096, bias=False)
          (lora_wo_l1): Linear(in_features=4096, out_features=16, bias=False)
          (lora_wo_l2): Linear(in_features=16, out_features=4096, bias=False)
        )
        (feed_forward): FeedForward(
          (w1): Linear(in_features=4096, out_features=11008, bias=True)
          (w2): Linear(in_features=11008, out_features=4096, bias=True)
          (w3): Linear(in_features=4096, out_features=11008, bias=True)
          (lora_w1_l1): Linear(in_features=4096, out_features=16, bias=False)
          (lora_w1_l2): Linear(in_features=16, out_features=11008, bias=False)
          (lora_w2_l1): Linear(in_features=11008, out_features=16, bias=False)
          (lora_w2_l2): Linear(in_features=16, out_features=4096, bias=False)
          (lora_w3_l1): Linear(in_features=4096, out_features=16, bias=False)
          (lora_w3_l2): Linear(in_features=16, out_features=11008, bias=False)
        )
        (attention_norm): RMSNorm()
        (ffn_norm): RMSNorm()
      )
      (6): TransformerBlock(
        (attention): Attention(
          (wq): Linear(in_features=4096, out_features=4096, bias=True)
          (wk): Linear(in_features=4096, out_features=4096, bias=False)
          (wv): Linear(in_features=4096, out_features=4096, bias=False)
          (wo): Linear(in_features=4096, out_features=4096, bias=True)
          (lora_wq_l1): Linear(in_features=4096, out_features=16, bias=False)
          (lora_wq_l2): Linear(in_features=16, out_features=4096, bias=False)
          (lora_wk_l1): Linear(in_features=4096, out_features=16, bias=False)
          (lora_wk_l2): Linear(in_features=16, out_features=4096, bias=False)
          (lora_wv_l1): Linear(in_features=4096, out_features=16, bias=False)
          (lora_wv_l2): Linear(in_features=16, out_features=4096, bias=False)
          (lora_wo_l1): Linear(in_features=4096, out_features=16, bias=False)
          (lora_wo_l2): Linear(in_features=16, out_features=4096, bias=False)
        )
        (feed_forward): FeedForward(
          (w1): Linear(in_features=4096, out_features=11008, bias=True)
          (w2): Linear(in_features=11008, out_features=4096, bias=True)
          (w3): Linear(in_features=4096, out_features=11008, bias=True)
          (lora_w1_l1): Linear(in_features=4096, out_features=16, bias=False)
          (lora_w1_l2): Linear(in_features=16, out_features=11008, bias=False)
          (lora_w2_l1): Linear(in_features=11008, out_features=16, bias=False)
          (lora_w2_l2): Linear(in_features=16, out_features=4096, bias=False)
          (lora_w3_l1): Linear(in_features=4096, out_features=16, bias=False)
          (lora_w3_l2): Linear(in_features=16, out_features=11008, bias=False)
        )
        (attention_norm): RMSNorm()
        (ffn_norm): RMSNorm()
      )
      (7): TransformerBlock(
        (attention): Attention(
          (wq): Linear(in_features=4096, out_features=4096, bias=True)
          (wk): Linear(in_features=4096, out_features=4096, bias=False)
          (wv): Linear(in_features=4096, out_features=4096, bias=False)
          (wo): Linear(in_features=4096, out_features=4096, bias=True)
          (lora_wq_l1): Linear(in_features=4096, out_features=16, bias=False)
          (lora_wq_l2): Linear(in_features=16, out_features=4096, bias=False)
          (lora_wk_l1): Linear(in_features=4096, out_features=16, bias=False)
          (lora_wk_l2): Linear(in_features=16, out_features=4096, bias=False)
          (lora_wv_l1): Linear(in_features=4096, out_features=16, bias=False)
          (lora_wv_l2): Linear(in_features=16, out_features=4096, bias=False)
          (lora_wo_l1): Linear(in_features=4096, out_features=16, bias=False)
          (lora_wo_l2): Linear(in_features=16, out_features=4096, bias=False)
        )
        (feed_forward): FeedForward(
          (w1): Linear(in_features=4096, out_features=11008, bias=True)
          (w2): Linear(in_features=11008, out_features=4096, bias=True)
          (w3): Linear(in_features=4096, out_features=11008, bias=True)
          (lora_w1_l1): Linear(in_features=4096, out_features=16, bias=False)
          (lora_w1_l2): Linear(in_features=16, out_features=11008, bias=False)
          (lora_w2_l1): Linear(in_features=11008, out_features=16, bias=False)
          (lora_w2_l2): Linear(in_features=16, out_features=4096, bias=False)
          (lora_w3_l1): Linear(in_features=4096, out_features=16, bias=False)
          (lora_w3_l2): Linear(in_features=16, out_features=11008, bias=False)
        )
        (attention_norm): RMSNorm()
        (ffn_norm): RMSNorm()
      )
      (8): TransformerBlock(
        (attention): Attention(
          (wq): Linear(in_features=4096, out_features=4096, bias=True)
          (wk): Linear(in_features=4096, out_features=4096, bias=False)
          (wv): Linear(in_features=4096, out_features=4096, bias=False)
          (wo): Linear(in_features=4096, out_features=4096, bias=True)
          (lora_wq_l1): Linear(in_features=4096, out_features=16, bias=False)
          (lora_wq_l2): Linear(in_features=16, out_features=4096, bias=False)
          (lora_wk_l1): Linear(in_features=4096, out_features=16, bias=False)
          (lora_wk_l2): Linear(in_features=16, out_features=4096, bias=False)
          (lora_wv_l1): Linear(in_features=4096, out_features=16, bias=False)
          (lora_wv_l2): Linear(in_features=16, out_features=4096, bias=False)
          (lora_wo_l1): Linear(in_features=4096, out_features=16, bias=False)
          (lora_wo_l2): Linear(in_features=16, out_features=4096, bias=False)
        )
        (feed_forward): FeedForward(
          (w1): Linear(in_features=4096, out_features=11008, bias=True)
          (w2): Linear(in_features=11008, out_features=4096, bias=True)
          (w3): Linear(in_features=4096, out_features=11008, bias=True)
          (lora_w1_l1): Linear(in_features=4096, out_features=16, bias=False)
          (lora_w1_l2): Linear(in_features=16, out_features=11008, bias=False)
          (lora_w2_l1): Linear(in_features=11008, out_features=16, bias=False)
          (lora_w2_l2): Linear(in_features=16, out_features=4096, bias=False)
          (lora_w3_l1): Linear(in_features=4096, out_features=16, bias=False)
          (lora_w3_l2): Linear(in_features=16, out_features=11008, bias=False)
        )
        (attention_norm): RMSNorm()
        (ffn_norm): RMSNorm()
      )
      (9): TransformerBlock(
        (attention): Attention(
          (wq): Linear(in_features=4096, out_features=4096, bias=True)
          (wk): Linear(in_features=4096, out_features=4096, bias=False)
          (wv): Linear(in_features=4096, out_features=4096, bias=False)
          (wo): Linear(in_features=4096, out_features=4096, bias=True)
          (lora_wq_l1): Linear(in_features=4096, out_features=16, bias=False)
          (lora_wq_l2): Linear(in_features=16, out_features=4096, bias=False)
          (lora_wk_l1): Linear(in_features=4096, out_features=16, bias=False)
          (lora_wk_l2): Linear(in_features=16, out_features=4096, bias=False)
          (lora_wv_l1): Linear(in_features=4096, out_features=16, bias=False)
          (lora_wv_l2): Linear(in_features=16, out_features=4096, bias=False)
          (lora_wo_l1): Linear(in_features=4096, out_features=16, bias=False)
          (lora_wo_l2): Linear(in_features=16, out_features=4096, bias=False)
        )
        (feed_forward): FeedForward(
          (w1): Linear(in_features=4096, out_features=11008, bias=True)
          (w2): Linear(in_features=11008, out_features=4096, bias=True)
          (w3): Linear(in_features=4096, out_features=11008, bias=True)
          (lora_w1_l1): Linear(in_features=4096, out_features=16, bias=False)
          (lora_w1_l2): Linear(in_features=16, out_features=11008, bias=False)
          (lora_w2_l1): Linear(in_features=11008, out_features=16, bias=False)
          (lora_w2_l2): Linear(in_features=16, out_features=4096, bias=False)
          (lora_w3_l1): Linear(in_features=4096, out_features=16, bias=False)
          (lora_w3_l2): Linear(in_features=16, out_features=11008, bias=False)
        )
        (attention_norm): RMSNorm()
        (ffn_norm): RMSNorm()
      )
      (10): TransformerBlock(
        (attention): Attention(
          (wq): Linear(in_features=4096, out_features=4096, bias=True)
          (wk): Linear(in_features=4096, out_features=4096, bias=False)
          (wv): Linear(in_features=4096, out_features=4096, bias=False)
          (wo): Linear(in_features=4096, out_features=4096, bias=True)
          (lora_wq_l1): Linear(in_features=4096, out_features=16, bias=False)
          (lora_wq_l2): Linear(in_features=16, out_features=4096, bias=False)
          (lora_wk_l1): Linear(in_features=4096, out_features=16, bias=False)
          (lora_wk_l2): Linear(in_features=16, out_features=4096, bias=False)
          (lora_wv_l1): Linear(in_features=4096, out_features=16, bias=False)
          (lora_wv_l2): Linear(in_features=16, out_features=4096, bias=False)
          (lora_wo_l1): Linear(in_features=4096, out_features=16, bias=False)
          (lora_wo_l2): Linear(in_features=16, out_features=4096, bias=False)
        )
        (feed_forward): FeedForward(
          (w1): Linear(in_features=4096, out_features=11008, bias=True)
          (w2): Linear(in_features=11008, out_features=4096, bias=True)
          (w3): Linear(in_features=4096, out_features=11008, bias=True)
          (lora_w1_l1): Linear(in_features=4096, out_features=16, bias=False)
          (lora_w1_l2): Linear(in_features=16, out_features=11008, bias=False)
          (lora_w2_l1): Linear(in_features=11008, out_features=16, bias=False)
          (lora_w2_l2): Linear(in_features=16, out_features=4096, bias=False)
          (lora_w3_l1): Linear(in_features=4096, out_features=16, bias=False)
          (lora_w3_l2): Linear(in_features=16, out_features=11008, bias=False)
        )
        (attention_norm): RMSNorm()
        (ffn_norm): RMSNorm()
      )
      (11): TransformerBlock(
        (attention): Attention(
          (wq): Linear(in_features=4096, out_features=4096, bias=True)
          (wk): Linear(in_features=4096, out_features=4096, bias=False)
          (wv): Linear(in_features=4096, out_features=4096, bias=False)
          (wo): Linear(in_features=4096, out_features=4096, bias=True)
          (lora_wq_l1): Linear(in_features=4096, out_features=16, bias=False)
          (lora_wq_l2): Linear(in_features=16, out_features=4096, bias=False)
          (lora_wk_l1): Linear(in_features=4096, out_features=16, bias=False)
          (lora_wk_l2): Linear(in_features=16, out_features=4096, bias=False)
          (lora_wv_l1): Linear(in_features=4096, out_features=16, bias=False)
          (lora_wv_l2): Linear(in_features=16, out_features=4096, bias=False)
          (lora_wo_l1): Linear(in_features=4096, out_features=16, bias=False)
          (lora_wo_l2): Linear(in_features=16, out_features=4096, bias=False)
        )
        (feed_forward): FeedForward(
          (w1): Linear(in_features=4096, out_features=11008, bias=True)
          (w2): Linear(in_features=11008, out_features=4096, bias=True)
          (w3): Linear(in_features=4096, out_features=11008, bias=True)
          (lora_w1_l1): Linear(in_features=4096, out_features=16, bias=False)
          (lora_w1_l2): Linear(in_features=16, out_features=11008, bias=False)
          (lora_w2_l1): Linear(in_features=11008, out_features=16, bias=False)
          (lora_w2_l2): Linear(in_features=16, out_features=4096, bias=False)
          (lora_w3_l1): Linear(in_features=4096, out_features=16, bias=False)
          (lora_w3_l2): Linear(in_features=16, out_features=11008, bias=False)
        )
        (attention_norm): RMSNorm()
        (ffn_norm): RMSNorm()
      )
      (12): TransformerBlock(
        (attention): Attention(
          (wq): Linear(in_features=4096, out_features=4096, bias=True)
          (wk): Linear(in_features=4096, out_features=4096, bias=False)
          (wv): Linear(in_features=4096, out_features=4096, bias=False)
          (wo): Linear(in_features=4096, out_features=4096, bias=True)
          (lora_wq_l1): Linear(in_features=4096, out_features=16, bias=False)
          (lora_wq_l2): Linear(in_features=16, out_features=4096, bias=False)
          (lora_wk_l1): Linear(in_features=4096, out_features=16, bias=False)
          (lora_wk_l2): Linear(in_features=16, out_features=4096, bias=False)
          (lora_wv_l1): Linear(in_features=4096, out_features=16, bias=False)
          (lora_wv_l2): Linear(in_features=16, out_features=4096, bias=False)
          (lora_wo_l1): Linear(in_features=4096, out_features=16, bias=False)
          (lora_wo_l2): Linear(in_features=16, out_features=4096, bias=False)
        )
        (feed_forward): FeedForward(
          (w1): Linear(in_features=4096, out_features=11008, bias=True)
          (w2): Linear(in_features=11008, out_features=4096, bias=True)
          (w3): Linear(in_features=4096, out_features=11008, bias=True)
          (lora_w1_l1): Linear(in_features=4096, out_features=16, bias=False)
          (lora_w1_l2): Linear(in_features=16, out_features=11008, bias=False)
          (lora_w2_l1): Linear(in_features=11008, out_features=16, bias=False)
          (lora_w2_l2): Linear(in_features=16, out_features=4096, bias=False)
          (lora_w3_l1): Linear(in_features=4096, out_features=16, bias=False)
          (lora_w3_l2): Linear(in_features=16, out_features=11008, bias=False)
        )
        (attention_norm): RMSNorm()
        (ffn_norm): RMSNorm()
      )
      (13): TransformerBlock(
        (attention): Attention(
          (wq): Linear(in_features=4096, out_features=4096, bias=True)
          (wk): Linear(in_features=4096, out_features=4096, bias=False)
          (wv): Linear(in_features=4096, out_features=4096, bias=False)
          (wo): Linear(in_features=4096, out_features=4096, bias=True)
          (lora_wq_l1): Linear(in_features=4096, out_features=16, bias=False)
          (lora_wq_l2): Linear(in_features=16, out_features=4096, bias=False)
          (lora_wk_l1): Linear(in_features=4096, out_features=16, bias=False)
          (lora_wk_l2): Linear(in_features=16, out_features=4096, bias=False)
          (lora_wv_l1): Linear(in_features=4096, out_features=16, bias=False)
          (lora_wv_l2): Linear(in_features=16, out_features=4096, bias=False)
          (lora_wo_l1): Linear(in_features=4096, out_features=16, bias=False)
          (lora_wo_l2): Linear(in_features=16, out_features=4096, bias=False)
        )
        (feed_forward): FeedForward(
          (w1): Linear(in_features=4096, out_features=11008, bias=True)
          (w2): Linear(in_features=11008, out_features=4096, bias=True)
          (w3): Linear(in_features=4096, out_features=11008, bias=True)
          (lora_w1_l1): Linear(in_features=4096, out_features=16, bias=False)
          (lora_w1_l2): Linear(in_features=16, out_features=11008, bias=False)
          (lora_w2_l1): Linear(in_features=11008, out_features=16, bias=False)
          (lora_w2_l2): Linear(in_features=16, out_features=4096, bias=False)
          (lora_w3_l1): Linear(in_features=4096, out_features=16, bias=False)
          (lora_w3_l2): Linear(in_features=16, out_features=11008, bias=False)
        )
        (attention_norm): RMSNorm()
        (ffn_norm): RMSNorm()
      )
      (14): TransformerBlock(
        (attention): Attention(
          (wq): Linear(in_features=4096, out_features=4096, bias=True)
          (wk): Linear(in_features=4096, out_features=4096, bias=False)
          (wv): Linear(in_features=4096, out_features=4096, bias=False)
          (wo): Linear(in_features=4096, out_features=4096, bias=True)
          (lora_wq_l1): Linear(in_features=4096, out_features=16, bias=False)
          (lora_wq_l2): Linear(in_features=16, out_features=4096, bias=False)
          (lora_wk_l1): Linear(in_features=4096, out_features=16, bias=False)
          (lora_wk_l2): Linear(in_features=16, out_features=4096, bias=False)
          (lora_wv_l1): Linear(in_features=4096, out_features=16, bias=False)
          (lora_wv_l2): Linear(in_features=16, out_features=4096, bias=False)
          (lora_wo_l1): Linear(in_features=4096, out_features=16, bias=False)
          (lora_wo_l2): Linear(in_features=16, out_features=4096, bias=False)
        )
        (feed_forward): FeedForward(
          (w1): Linear(in_features=4096, out_features=11008, bias=True)
          (w2): Linear(in_features=11008, out_features=4096, bias=True)
          (w3): Linear(in_features=4096, out_features=11008, bias=True)
          (lora_w1_l1): Linear(in_features=4096, out_features=16, bias=False)
          (lora_w1_l2): Linear(in_features=16, out_features=11008, bias=False)
          (lora_w2_l1): Linear(in_features=11008, out_features=16, bias=False)
          (lora_w2_l2): Linear(in_features=16, out_features=4096, bias=False)
          (lora_w3_l1): Linear(in_features=4096, out_features=16, bias=False)
          (lora_w3_l2): Linear(in_features=16, out_features=11008, bias=False)
        )
        (attention_norm): RMSNorm()
        (ffn_norm): RMSNorm()
      )
      (15): TransformerBlock(
        (attention): Attention(
          (wq): Linear(in_features=4096, out_features=4096, bias=True)
          (wk): Linear(in_features=4096, out_features=4096, bias=False)
          (wv): Linear(in_features=4096, out_features=4096, bias=False)
          (wo): Linear(in_features=4096, out_features=4096, bias=True)
          (lora_wq_l1): Linear(in_features=4096, out_features=16, bias=False)
          (lora_wq_l2): Linear(in_features=16, out_features=4096, bias=False)
          (lora_wk_l1): Linear(in_features=4096, out_features=16, bias=False)
          (lora_wk_l2): Linear(in_features=16, out_features=4096, bias=False)
          (lora_wv_l1): Linear(in_features=4096, out_features=16, bias=False)
          (lora_wv_l2): Linear(in_features=16, out_features=4096, bias=False)
          (lora_wo_l1): Linear(in_features=4096, out_features=16, bias=False)
          (lora_wo_l2): Linear(in_features=16, out_features=4096, bias=False)
        )
        (feed_forward): FeedForward(
          (w1): Linear(in_features=4096, out_features=11008, bias=True)
          (w2): Linear(in_features=11008, out_features=4096, bias=True)
          (w3): Linear(in_features=4096, out_features=11008, bias=True)
          (lora_w1_l1): Linear(in_features=4096, out_features=16, bias=False)
          (lora_w1_l2): Linear(in_features=16, out_features=11008, bias=False)
          (lora_w2_l1): Linear(in_features=11008, out_features=16, bias=False)
          (lora_w2_l2): Linear(in_features=16, out_features=4096, bias=False)
          (lora_w3_l1): Linear(in_features=4096, out_features=16, bias=False)
          (lora_w3_l2): Linear(in_features=16, out_features=11008, bias=False)
        )
        (attention_norm): RMSNorm()
        (ffn_norm): RMSNorm()
      )
      (16): TransformerBlock(
        (attention): Attention(
          (wq): Linear(in_features=4096, out_features=4096, bias=True)
          (wk): Linear(in_features=4096, out_features=4096, bias=False)
          (wv): Linear(in_features=4096, out_features=4096, bias=False)
          (wo): Linear(in_features=4096, out_features=4096, bias=True)
          (lora_wq_l1): Linear(in_features=4096, out_features=16, bias=False)
          (lora_wq_l2): Linear(in_features=16, out_features=4096, bias=False)
          (lora_wk_l1): Linear(in_features=4096, out_features=16, bias=False)
          (lora_wk_l2): Linear(in_features=16, out_features=4096, bias=False)
          (lora_wv_l1): Linear(in_features=4096, out_features=16, bias=False)
          (lora_wv_l2): Linear(in_features=16, out_features=4096, bias=False)
          (lora_wo_l1): Linear(in_features=4096, out_features=16, bias=False)
          (lora_wo_l2): Linear(in_features=16, out_features=4096, bias=False)
        )
        (feed_forward): FeedForward(
          (w1): Linear(in_features=4096, out_features=11008, bias=True)
          (w2): Linear(in_features=11008, out_features=4096, bias=True)
          (w3): Linear(in_features=4096, out_features=11008, bias=True)
          (lora_w1_l1): Linear(in_features=4096, out_features=16, bias=False)
          (lora_w1_l2): Linear(in_features=16, out_features=11008, bias=False)
          (lora_w2_l1): Linear(in_features=11008, out_features=16, bias=False)
          (lora_w2_l2): Linear(in_features=16, out_features=4096, bias=False)
          (lora_w3_l1): Linear(in_features=4096, out_features=16, bias=False)
          (lora_w3_l2): Linear(in_features=16, out_features=11008, bias=False)
        )
        (attention_norm): RMSNorm()
        (ffn_norm): RMSNorm()
      )
      (17): TransformerBlock(
        (attention): Attention(
          (wq): Linear(in_features=4096, out_features=4096, bias=True)
          (wk): Linear(in_features=4096, out_features=4096, bias=False)
          (wv): Linear(in_features=4096, out_features=4096, bias=False)
          (wo): Linear(in_features=4096, out_features=4096, bias=True)
          (lora_wq_l1): Linear(in_features=4096, out_features=16, bias=False)
          (lora_wq_l2): Linear(in_features=16, out_features=4096, bias=False)
          (lora_wk_l1): Linear(in_features=4096, out_features=16, bias=False)
          (lora_wk_l2): Linear(in_features=16, out_features=4096, bias=False)
          (lora_wv_l1): Linear(in_features=4096, out_features=16, bias=False)
          (lora_wv_l2): Linear(in_features=16, out_features=4096, bias=False)
          (lora_wo_l1): Linear(in_features=4096, out_features=16, bias=False)
          (lora_wo_l2): Linear(in_features=16, out_features=4096, bias=False)
        )
        (feed_forward): FeedForward(
          (w1): Linear(in_features=4096, out_features=11008, bias=True)
          (w2): Linear(in_features=11008, out_features=4096, bias=True)
          (w3): Linear(in_features=4096, out_features=11008, bias=True)
          (lora_w1_l1): Linear(in_features=4096, out_features=16, bias=False)
          (lora_w1_l2): Linear(in_features=16, out_features=11008, bias=False)
          (lora_w2_l1): Linear(in_features=11008, out_features=16, bias=False)
          (lora_w2_l2): Linear(in_features=16, out_features=4096, bias=False)
          (lora_w3_l1): Linear(in_features=4096, out_features=16, bias=False)
          (lora_w3_l2): Linear(in_features=16, out_features=11008, bias=False)
        )
        (attention_norm): RMSNorm()
        (ffn_norm): RMSNorm()
      )
      (18): TransformerBlock(
        (attention): Attention(
          (wq): Linear(in_features=4096, out_features=4096, bias=True)
          (wk): Linear(in_features=4096, out_features=4096, bias=False)
          (wv): Linear(in_features=4096, out_features=4096, bias=False)
          (wo): Linear(in_features=4096, out_features=4096, bias=True)
          (lora_wq_l1): Linear(in_features=4096, out_features=16, bias=False)
          (lora_wq_l2): Linear(in_features=16, out_features=4096, bias=False)
          (lora_wk_l1): Linear(in_features=4096, out_features=16, bias=False)
          (lora_wk_l2): Linear(in_features=16, out_features=4096, bias=False)
          (lora_wv_l1): Linear(in_features=4096, out_features=16, bias=False)
          (lora_wv_l2): Linear(in_features=16, out_features=4096, bias=False)
          (lora_wo_l1): Linear(in_features=4096, out_features=16, bias=False)
          (lora_wo_l2): Linear(in_features=16, out_features=4096, bias=False)
        )
        (feed_forward): FeedForward(
          (w1): Linear(in_features=4096, out_features=11008, bias=True)
          (w2): Linear(in_features=11008, out_features=4096, bias=True)
          (w3): Linear(in_features=4096, out_features=11008, bias=True)
          (lora_w1_l1): Linear(in_features=4096, out_features=16, bias=False)
          (lora_w1_l2): Linear(in_features=16, out_features=11008, bias=False)
          (lora_w2_l1): Linear(in_features=11008, out_features=16, bias=False)
          (lora_w2_l2): Linear(in_features=16, out_features=4096, bias=False)
          (lora_w3_l1): Linear(in_features=4096, out_features=16, bias=False)
          (lora_w3_l2): Linear(in_features=16, out_features=11008, bias=False)
        )
        (attention_norm): RMSNorm()
        (ffn_norm): RMSNorm()
      )
      (19): TransformerBlock(
        (attention): Attention(
          (wq): Linear(in_features=4096, out_features=4096, bias=True)
          (wk): Linear(in_features=4096, out_features=4096, bias=False)
          (wv): Linear(in_features=4096, out_features=4096, bias=False)
          (wo): Linear(in_features=4096, out_features=4096, bias=True)
          (lora_wq_l1): Linear(in_features=4096, out_features=16, bias=False)
          (lora_wq_l2): Linear(in_features=16, out_features=4096, bias=False)
          (lora_wk_l1): Linear(in_features=4096, out_features=16, bias=False)
          (lora_wk_l2): Linear(in_features=16, out_features=4096, bias=False)
          (lora_wv_l1): Linear(in_features=4096, out_features=16, bias=False)
          (lora_wv_l2): Linear(in_features=16, out_features=4096, bias=False)
          (lora_wo_l1): Linear(in_features=4096, out_features=16, bias=False)
          (lora_wo_l2): Linear(in_features=16, out_features=4096, bias=False)
        )
        (feed_forward): FeedForward(
          (w1): Linear(in_features=4096, out_features=11008, bias=True)
          (w2): Linear(in_features=11008, out_features=4096, bias=True)
          (w3): Linear(in_features=4096, out_features=11008, bias=True)
          (lora_w1_l1): Linear(in_features=4096, out_features=16, bias=False)
          (lora_w1_l2): Linear(in_features=16, out_features=11008, bias=False)
          (lora_w2_l1): Linear(in_features=11008, out_features=16, bias=False)
          (lora_w2_l2): Linear(in_features=16, out_features=4096, bias=False)
          (lora_w3_l1): Linear(in_features=4096, out_features=16, bias=False)
          (lora_w3_l2): Linear(in_features=16, out_features=11008, bias=False)
        )
        (attention_norm): RMSNorm()
        (ffn_norm): RMSNorm()
      )
      (20): TransformerBlock(
        (attention): Attention(
          (wq): Linear(in_features=4096, out_features=4096, bias=True)
          (wk): Linear(in_features=4096, out_features=4096, bias=False)
          (wv): Linear(in_features=4096, out_features=4096, bias=False)
          (wo): Linear(in_features=4096, out_features=4096, bias=True)
          (lora_wq_l1): Linear(in_features=4096, out_features=16, bias=False)
          (lora_wq_l2): Linear(in_features=16, out_features=4096, bias=False)
          (lora_wk_l1): Linear(in_features=4096, out_features=16, bias=False)
          (lora_wk_l2): Linear(in_features=16, out_features=4096, bias=False)
          (lora_wv_l1): Linear(in_features=4096, out_features=16, bias=False)
          (lora_wv_l2): Linear(in_features=16, out_features=4096, bias=False)
          (lora_wo_l1): Linear(in_features=4096, out_features=16, bias=False)
          (lora_wo_l2): Linear(in_features=16, out_features=4096, bias=False)
        )
        (feed_forward): FeedForward(
          (w1): Linear(in_features=4096, out_features=11008, bias=True)
          (w2): Linear(in_features=11008, out_features=4096, bias=True)
          (w3): Linear(in_features=4096, out_features=11008, bias=True)
          (lora_w1_l1): Linear(in_features=4096, out_features=16, bias=False)
          (lora_w1_l2): Linear(in_features=16, out_features=11008, bias=False)
          (lora_w2_l1): Linear(in_features=11008, out_features=16, bias=False)
          (lora_w2_l2): Linear(in_features=16, out_features=4096, bias=False)
          (lora_w3_l1): Linear(in_features=4096, out_features=16, bias=False)
          (lora_w3_l2): Linear(in_features=16, out_features=11008, bias=False)
        )
        (attention_norm): RMSNorm()
        (ffn_norm): RMSNorm()
      )
      (21): TransformerBlock(
        (attention): Attention(
          (wq): Linear(in_features=4096, out_features=4096, bias=True)
          (wk): Linear(in_features=4096, out_features=4096, bias=False)
          (wv): Linear(in_features=4096, out_features=4096, bias=False)
          (wo): Linear(in_features=4096, out_features=4096, bias=True)
          (lora_wq_l1): Linear(in_features=4096, out_features=16, bias=False)
          (lora_wq_l2): Linear(in_features=16, out_features=4096, bias=False)
          (lora_wk_l1): Linear(in_features=4096, out_features=16, bias=False)
          (lora_wk_l2): Linear(in_features=16, out_features=4096, bias=False)
          (lora_wv_l1): Linear(in_features=4096, out_features=16, bias=False)
          (lora_wv_l2): Linear(in_features=16, out_features=4096, bias=False)
          (lora_wo_l1): Linear(in_features=4096, out_features=16, bias=False)
          (lora_wo_l2): Linear(in_features=16, out_features=4096, bias=False)
        )
        (feed_forward): FeedForward(
          (w1): Linear(in_features=4096, out_features=11008, bias=True)
          (w2): Linear(in_features=11008, out_features=4096, bias=True)
          (w3): Linear(in_features=4096, out_features=11008, bias=True)
          (lora_w1_l1): Linear(in_features=4096, out_features=16, bias=False)
          (lora_w1_l2): Linear(in_features=16, out_features=11008, bias=False)
          (lora_w2_l1): Linear(in_features=11008, out_features=16, bias=False)
          (lora_w2_l2): Linear(in_features=16, out_features=4096, bias=False)
          (lora_w3_l1): Linear(in_features=4096, out_features=16, bias=False)
          (lora_w3_l2): Linear(in_features=16, out_features=11008, bias=False)
        )
        (attention_norm): RMSNorm()
        (ffn_norm): RMSNorm()
      )
      (22): TransformerBlock(
        (attention): Attention(
          (wq): Linear(in_features=4096, out_features=4096, bias=True)
          (wk): Linear(in_features=4096, out_features=4096, bias=False)
          (wv): Linear(in_features=4096, out_features=4096, bias=False)
          (wo): Linear(in_features=4096, out_features=4096, bias=True)
          (lora_wq_l1): Linear(in_features=4096, out_features=16, bias=False)
          (lora_wq_l2): Linear(in_features=16, out_features=4096, bias=False)
          (lora_wk_l1): Linear(in_features=4096, out_features=16, bias=False)
          (lora_wk_l2): Linear(in_features=16, out_features=4096, bias=False)
          (lora_wv_l1): Linear(in_features=4096, out_features=16, bias=False)
          (lora_wv_l2): Linear(in_features=16, out_features=4096, bias=False)
          (lora_wo_l1): Linear(in_features=4096, out_features=16, bias=False)
          (lora_wo_l2): Linear(in_features=16, out_features=4096, bias=False)
        )
        (feed_forward): FeedForward(
          (w1): Linear(in_features=4096, out_features=11008, bias=True)
          (w2): Linear(in_features=11008, out_features=4096, bias=True)
          (w3): Linear(in_features=4096, out_features=11008, bias=True)
          (lora_w1_l1): Linear(in_features=4096, out_features=16, bias=False)
          (lora_w1_l2): Linear(in_features=16, out_features=11008, bias=False)
          (lora_w2_l1): Linear(in_features=11008, out_features=16, bias=False)
          (lora_w2_l2): Linear(in_features=16, out_features=4096, bias=False)
          (lora_w3_l1): Linear(in_features=4096, out_features=16, bias=False)
          (lora_w3_l2): Linear(in_features=16, out_features=11008, bias=False)
        )
        (attention_norm): RMSNorm()
        (ffn_norm): RMSNorm()
      )
      (23): TransformerBlock(
        (attention): Attention(
          (wq): Linear(in_features=4096, out_features=4096, bias=True)
          (wk): Linear(in_features=4096, out_features=4096, bias=False)
          (wv): Linear(in_features=4096, out_features=4096, bias=False)
          (wo): Linear(in_features=4096, out_features=4096, bias=True)
          (lora_wq_l1): Linear(in_features=4096, out_features=16, bias=False)
          (lora_wq_l2): Linear(in_features=16, out_features=4096, bias=False)
          (lora_wk_l1): Linear(in_features=4096, out_features=16, bias=False)
          (lora_wk_l2): Linear(in_features=16, out_features=4096, bias=False)
          (lora_wv_l1): Linear(in_features=4096, out_features=16, bias=False)
          (lora_wv_l2): Linear(in_features=16, out_features=4096, bias=False)
          (lora_wo_l1): Linear(in_features=4096, out_features=16, bias=False)
          (lora_wo_l2): Linear(in_features=16, out_features=4096, bias=False)
        )
        (feed_forward): FeedForward(
          (w1): Linear(in_features=4096, out_features=11008, bias=True)
          (w2): Linear(in_features=11008, out_features=4096, bias=True)
          (w3): Linear(in_features=4096, out_features=11008, bias=True)
          (lora_w1_l1): Linear(in_features=4096, out_features=16, bias=False)
          (lora_w1_l2): Linear(in_features=16, out_features=11008, bias=False)
          (lora_w2_l1): Linear(in_features=11008, out_features=16, bias=False)
          (lora_w2_l2): Linear(in_features=16, out_features=4096, bias=False)
          (lora_w3_l1): Linear(in_features=4096, out_features=16, bias=False)
          (lora_w3_l2): Linear(in_features=16, out_features=11008, bias=False)
        )
        (attention_norm): RMSNorm()
        (ffn_norm): RMSNorm()
      )
      (24): TransformerBlock(
        (attention): Attention(
          (wq): Linear(in_features=4096, out_features=4096, bias=True)
          (wk): Linear(in_features=4096, out_features=4096, bias=False)
          (wv): Linear(in_features=4096, out_features=4096, bias=False)
          (wo): Linear(in_features=4096, out_features=4096, bias=True)
          (lora_wq_l1): Linear(in_features=4096, out_features=16, bias=False)
          (lora_wq_l2): Linear(in_features=16, out_features=4096, bias=False)
          (lora_wk_l1): Linear(in_features=4096, out_features=16, bias=False)
          (lora_wk_l2): Linear(in_features=16, out_features=4096, bias=False)
          (lora_wv_l1): Linear(in_features=4096, out_features=16, bias=False)
          (lora_wv_l2): Linear(in_features=16, out_features=4096, bias=False)
          (lora_wo_l1): Linear(in_features=4096, out_features=16, bias=False)
          (lora_wo_l2): Linear(in_features=16, out_features=4096, bias=False)
        )
        (feed_forward): FeedForward(
          (w1): Linear(in_features=4096, out_features=11008, bias=True)
          (w2): Linear(in_features=11008, out_features=4096, bias=True)
          (w3): Linear(in_features=4096, out_features=11008, bias=True)
          (lora_w1_l1): Linear(in_features=4096, out_features=16, bias=False)
          (lora_w1_l2): Linear(in_features=16, out_features=11008, bias=False)
          (lora_w2_l1): Linear(in_features=11008, out_features=16, bias=False)
          (lora_w2_l2): Linear(in_features=16, out_features=4096, bias=False)
          (lora_w3_l1): Linear(in_features=4096, out_features=16, bias=False)
          (lora_w3_l2): Linear(in_features=16, out_features=11008, bias=False)
        )
        (attention_norm): RMSNorm()
        (ffn_norm): RMSNorm()
      )
      (25): TransformerBlock(
        (attention): Attention(
          (wq): Linear(in_features=4096, out_features=4096, bias=True)
          (wk): Linear(in_features=4096, out_features=4096, bias=False)
          (wv): Linear(in_features=4096, out_features=4096, bias=False)
          (wo): Linear(in_features=4096, out_features=4096, bias=True)
          (lora_wq_l1): Linear(in_features=4096, out_features=16, bias=False)
          (lora_wq_l2): Linear(in_features=16, out_features=4096, bias=False)
          (lora_wk_l1): Linear(in_features=4096, out_features=16, bias=False)
          (lora_wk_l2): Linear(in_features=16, out_features=4096, bias=False)
          (lora_wv_l1): Linear(in_features=4096, out_features=16, bias=False)
          (lora_wv_l2): Linear(in_features=16, out_features=4096, bias=False)
          (lora_wo_l1): Linear(in_features=4096, out_features=16, bias=False)
          (lora_wo_l2): Linear(in_features=16, out_features=4096, bias=False)
        )
        (feed_forward): FeedForward(
          (w1): Linear(in_features=4096, out_features=11008, bias=True)
          (w2): Linear(in_features=11008, out_features=4096, bias=True)
          (w3): Linear(in_features=4096, out_features=11008, bias=True)
          (lora_w1_l1): Linear(in_features=4096, out_features=16, bias=False)
          (lora_w1_l2): Linear(in_features=16, out_features=11008, bias=False)
          (lora_w2_l1): Linear(in_features=11008, out_features=16, bias=False)
          (lora_w2_l2): Linear(in_features=16, out_features=4096, bias=False)
          (lora_w3_l1): Linear(in_features=4096, out_features=16, bias=False)
          (lora_w3_l2): Linear(in_features=16, out_features=11008, bias=False)
        )
        (attention_norm): RMSNorm()
        (ffn_norm): RMSNorm()
      )
      (26): TransformerBlock(
        (attention): Attention(
          (wq): Linear(in_features=4096, out_features=4096, bias=True)
          (wk): Linear(in_features=4096, out_features=4096, bias=False)
          (wv): Linear(in_features=4096, out_features=4096, bias=False)
          (wo): Linear(in_features=4096, out_features=4096, bias=True)
          (lora_wq_l1): Linear(in_features=4096, out_features=16, bias=False)
          (lora_wq_l2): Linear(in_features=16, out_features=4096, bias=False)
          (lora_wk_l1): Linear(in_features=4096, out_features=16, bias=False)
          (lora_wk_l2): Linear(in_features=16, out_features=4096, bias=False)
          (lora_wv_l1): Linear(in_features=4096, out_features=16, bias=False)
          (lora_wv_l2): Linear(in_features=16, out_features=4096, bias=False)
          (lora_wo_l1): Linear(in_features=4096, out_features=16, bias=False)
          (lora_wo_l2): Linear(in_features=16, out_features=4096, bias=False)
        )
        (feed_forward): FeedForward(
          (w1): Linear(in_features=4096, out_features=11008, bias=True)
          (w2): Linear(in_features=11008, out_features=4096, bias=True)
          (w3): Linear(in_features=4096, out_features=11008, bias=True)
          (lora_w1_l1): Linear(in_features=4096, out_features=16, bias=False)
          (lora_w1_l2): Linear(in_features=16, out_features=11008, bias=False)
          (lora_w2_l1): Linear(in_features=11008, out_features=16, bias=False)
          (lora_w2_l2): Linear(in_features=16, out_features=4096, bias=False)
          (lora_w3_l1): Linear(in_features=4096, out_features=16, bias=False)
          (lora_w3_l2): Linear(in_features=16, out_features=11008, bias=False)
        )
        (attention_norm): RMSNorm()
        (ffn_norm): RMSNorm()
      )
      (27): TransformerBlock(
        (attention): Attention(
          (wq): Linear(in_features=4096, out_features=4096, bias=True)
          (wk): Linear(in_features=4096, out_features=4096, bias=False)
          (wv): Linear(in_features=4096, out_features=4096, bias=False)
          (wo): Linear(in_features=4096, out_features=4096, bias=True)
          (lora_wq_l1): Linear(in_features=4096, out_features=16, bias=False)
          (lora_wq_l2): Linear(in_features=16, out_features=4096, bias=False)
          (lora_wk_l1): Linear(in_features=4096, out_features=16, bias=False)
          (lora_wk_l2): Linear(in_features=16, out_features=4096, bias=False)
          (lora_wv_l1): Linear(in_features=4096, out_features=16, bias=False)
          (lora_wv_l2): Linear(in_features=16, out_features=4096, bias=False)
          (lora_wo_l1): Linear(in_features=4096, out_features=16, bias=False)
          (lora_wo_l2): Linear(in_features=16, out_features=4096, bias=False)
        )
        (feed_forward): FeedForward(
          (w1): Linear(in_features=4096, out_features=11008, bias=True)
          (w2): Linear(in_features=11008, out_features=4096, bias=True)
          (w3): Linear(in_features=4096, out_features=11008, bias=True)
          (lora_w1_l1): Linear(in_features=4096, out_features=16, bias=False)
          (lora_w1_l2): Linear(in_features=16, out_features=11008, bias=False)
          (lora_w2_l1): Linear(in_features=11008, out_features=16, bias=False)
          (lora_w2_l2): Linear(in_features=16, out_features=4096, bias=False)
          (lora_w3_l1): Linear(in_features=4096, out_features=16, bias=False)
          (lora_w3_l2): Linear(in_features=16, out_features=11008, bias=False)
        )
        (attention_norm): RMSNorm()
        (ffn_norm): RMSNorm()
      )
      (28): TransformerBlock(
        (attention): Attention(
          (wq): Linear(in_features=4096, out_features=4096, bias=True)
          (wk): Linear(in_features=4096, out_features=4096, bias=False)
          (wv): Linear(in_features=4096, out_features=4096, bias=False)
          (wo): Linear(in_features=4096, out_features=4096, bias=True)
          (lora_wq_l1): Linear(in_features=4096, out_features=16, bias=False)
          (lora_wq_l2): Linear(in_features=16, out_features=4096, bias=False)
          (lora_wk_l1): Linear(in_features=4096, out_features=16, bias=False)
          (lora_wk_l2): Linear(in_features=16, out_features=4096, bias=False)
          (lora_wv_l1): Linear(in_features=4096, out_features=16, bias=False)
          (lora_wv_l2): Linear(in_features=16, out_features=4096, bias=False)
          (lora_wo_l1): Linear(in_features=4096, out_features=16, bias=False)
          (lora_wo_l2): Linear(in_features=16, out_features=4096, bias=False)
        )
        (feed_forward): FeedForward(
          (w1): Linear(in_features=4096, out_features=11008, bias=True)
          (w2): Linear(in_features=11008, out_features=4096, bias=True)
          (w3): Linear(in_features=4096, out_features=11008, bias=True)
          (lora_w1_l1): Linear(in_features=4096, out_features=16, bias=False)
          (lora_w1_l2): Linear(in_features=16, out_features=11008, bias=False)
          (lora_w2_l1): Linear(in_features=11008, out_features=16, bias=False)
          (lora_w2_l2): Linear(in_features=16, out_features=4096, bias=False)
          (lora_w3_l1): Linear(in_features=4096, out_features=16, bias=False)
          (lora_w3_l2): Linear(in_features=16, out_features=11008, bias=False)
        )
        (attention_norm): RMSNorm()
        (ffn_norm): RMSNorm()
      )
      (29): TransformerBlock(
        (attention): Attention(
          (wq): Linear(in_features=4096, out_features=4096, bias=True)
          (wk): Linear(in_features=4096, out_features=4096, bias=False)
          (wv): Linear(in_features=4096, out_features=4096, bias=False)
          (wo): Linear(in_features=4096, out_features=4096, bias=True)
          (lora_wq_l1): Linear(in_features=4096, out_features=16, bias=False)
          (lora_wq_l2): Linear(in_features=16, out_features=4096, bias=False)
          (lora_wk_l1): Linear(in_features=4096, out_features=16, bias=False)
          (lora_wk_l2): Linear(in_features=16, out_features=4096, bias=False)
          (lora_wv_l1): Linear(in_features=4096, out_features=16, bias=False)
          (lora_wv_l2): Linear(in_features=16, out_features=4096, bias=False)
          (lora_wo_l1): Linear(in_features=4096, out_features=16, bias=False)
          (lora_wo_l2): Linear(in_features=16, out_features=4096, bias=False)
        )
        (feed_forward): FeedForward(
          (w1): Linear(in_features=4096, out_features=11008, bias=True)
          (w2): Linear(in_features=11008, out_features=4096, bias=True)
          (w3): Linear(in_features=4096, out_features=11008, bias=True)
          (lora_w1_l1): Linear(in_features=4096, out_features=16, bias=False)
          (lora_w1_l2): Linear(in_features=16, out_features=11008, bias=False)
          (lora_w2_l1): Linear(in_features=11008, out_features=16, bias=False)
          (lora_w2_l2): Linear(in_features=16, out_features=4096, bias=False)
          (lora_w3_l1): Linear(in_features=4096, out_features=16, bias=False)
          (lora_w3_l2): Linear(in_features=16, out_features=11008, bias=False)
        )
        (attention_norm): RMSNorm()
        (ffn_norm): RMSNorm()
      )
      (30): TransformerBlock(
        (attention): Attention(
          (wq): Linear(in_features=4096, out_features=4096, bias=True)
          (wk): Linear(in_features=4096, out_features=4096, bias=False)
          (wv): Linear(in_features=4096, out_features=4096, bias=False)
          (wo): Linear(in_features=4096, out_features=4096, bias=True)
          (lora_wq_l1): Linear(in_features=4096, out_features=16, bias=False)
          (lora_wq_l2): Linear(in_features=16, out_features=4096, bias=False)
          (lora_wk_l1): Linear(in_features=4096, out_features=16, bias=False)
          (lora_wk_l2): Linear(in_features=16, out_features=4096, bias=False)
          (lora_wv_l1): Linear(in_features=4096, out_features=16, bias=False)
          (lora_wv_l2): Linear(in_features=16, out_features=4096, bias=False)
          (lora_wo_l1): Linear(in_features=4096, out_features=16, bias=False)
          (lora_wo_l2): Linear(in_features=16, out_features=4096, bias=False)
        )
        (feed_forward): FeedForward(
          (w1): Linear(in_features=4096, out_features=11008, bias=True)
          (w2): Linear(in_features=11008, out_features=4096, bias=True)
          (w3): Linear(in_features=4096, out_features=11008, bias=True)
          (lora_w1_l1): Linear(in_features=4096, out_features=16, bias=False)
          (lora_w1_l2): Linear(in_features=16, out_features=11008, bias=False)
          (lora_w2_l1): Linear(in_features=11008, out_features=16, bias=False)
          (lora_w2_l2): Linear(in_features=16, out_features=4096, bias=False)
          (lora_w3_l1): Linear(in_features=4096, out_features=16, bias=False)
          (lora_w3_l2): Linear(in_features=16, out_features=11008, bias=False)
        )
        (attention_norm): RMSNorm()
        (ffn_norm): RMSNorm()
      )
      (31): TransformerBlock(
        (attention): Attention(
          (wq): Linear(in_features=4096, out_features=4096, bias=True)
          (wk): Linear(in_features=4096, out_features=4096, bias=False)
          (wv): Linear(in_features=4096, out_features=4096, bias=False)
          (wo): Linear(in_features=4096, out_features=4096, bias=True)
          (lora_wq_l1): Linear(in_features=4096, out_features=16, bias=False)
          (lora_wq_l2): Linear(in_features=16, out_features=4096, bias=False)
          (lora_wk_l1): Linear(in_features=4096, out_features=16, bias=False)
          (lora_wk_l2): Linear(in_features=16, out_features=4096, bias=False)
          (lora_wv_l1): Linear(in_features=4096, out_features=16, bias=False)
          (lora_wv_l2): Linear(in_features=16, out_features=4096, bias=False)
          (lora_wo_l1): Linear(in_features=4096, out_features=16, bias=False)
          (lora_wo_l2): Linear(in_features=16, out_features=4096, bias=False)
        )
        (feed_forward): FeedForward(
          (w1): Linear(in_features=4096, out_features=11008, bias=True)
          (w2): Linear(in_features=11008, out_features=4096, bias=True)
          (w3): Linear(in_features=4096, out_features=11008, bias=True)
          (lora_w1_l1): Linear(in_features=4096, out_features=16, bias=False)
          (lora_w1_l2): Linear(in_features=16, out_features=11008, bias=False)
          (lora_w2_l1): Linear(in_features=11008, out_features=16, bias=False)
          (lora_w2_l2): Linear(in_features=16, out_features=4096, bias=False)
          (lora_w3_l1): Linear(in_features=4096, out_features=16, bias=False)
          (lora_w3_l2): Linear(in_features=16, out_features=11008, bias=False)
        )
        (attention_norm): RMSNorm()
        (ffn_norm): RMSNorm()
      )
    )
    (norm): RMSNorm()
    (output): Linear(in_features=4096, out_features=32000, bias=False)
  )
  (prefix_query): Embedding(32, 4096)
  (criterion): CrossEntropyLoss()
)
[00:25:10.669435] Total Params: 8212.44 M
[00:25:10.673949] Trainable Params:: 39.43 M
[00:25:10.673993] image_bind.modality_preprocessors.vision.cls_token torch.Size([1, 1, 1280]) False
[00:25:10.674040] image_bind.modality_preprocessors.vision.rgbt_stem.proj.1.weight torch.Size([1280, 3, 2, 14, 14]) False
[00:25:10.674074] image_bind.modality_preprocessors.vision.pos_embedding_helper.pos_embed torch.Size([1, 257, 1280]) False
…
